data/sensor/neural_nets/gvsets_simple.onnx (onnx, 337443 bytes, 14 tensors)

actor_cnn.0.bias f4 [32]
00000000: 1413 45bd 4dc1 23bd 3c8f fd3c ad35 18bd
00000010: 02b1 c53c 00d7 8bbc e0af 993c 82b8 443d
00000020: 35a1 6b3b dfb1 0dbd e711 e13b 5387 3e3d
00000030: bb6f 063d 4746 a1bd 5269 673d 3578 5b3c
00000040: 80fc 18bd 9952 023d ca9e 453d 546d 0fbd
00000050: 2eb7 e63c 4f6c e23c a7e3 f13c 03bb b4bc
00000060: 0417 5cbc 356b 15bd ac0b 82bd dd83 10bd
00000070: 58ac 453d ee60 f13c 10a9 f1bc c212 7e3d
-0.048113897 -0.039979268 0.030952089 -0.037160564 0.024132255 -0.017070293 0.018760622 0.048027523
0.0035954241 -0.03459346 0.006868589 0.046515774 0.0328214 -0.078747325 0.056496926 0.013395359
-0.037350178 0.031817053 0.048247136 -0.035016373 0.028163519 0.027639536 0.029527498 -0.02206183
-0.013433222 -0.036479194 -0.063498825 -0.035282005 0.048260063 0.029465165 -0.02949956 0.062029608

actor_cnn.0.weight f4 [32, 3, 8, 8]
00000000: 5ee4 16bd 0162 76bd e6e7 e2bd 0123 f0bd
00000010: b054 50bd a2cd d1bd 936b 53bd 230f 67bd
00000020: baf1 31bd 6903 2dbe 5440 bfbd b980 50bd
00000030: e716 debd 2c5e f3bd 0fdf 70bd d0e5 6ebd
00000040: 3892 49bc ca01 59bd 7ed8 dfbd 9c08 dbbd
00000050: 8365 91bd 0c86 0cbd fc52 85bd 6a95 5cbc
00000060: 6a10 b7bd abbe 67bd 7284 cfbd 1dd1 ddbd
00000070: 950b 9abd 8f2c e9bd afad 73bd f38c f9bd
00000080: 85ea a7bc c16c b5bd 39f6 dfbd f878 04bd
00000090: f0e0 a8bd 20f0 8abd bb2c 08be 812d a1bd
000000a0: 60d5 d6bb dfb9 063d ee2e 73bd bc94 39bd
000000b0: 0509 dcbc 9fac 50bd e537 6cbd ca01 aabd
000000c0: b0d6 2c3d 5a1d 3e3d 573d 893d dd63 bc3d
000000d0: 5dcb 703c f101 b53c dd80 25bc 6b7c 55bd
000000e0: 4a8e 513d ac8e 723d c4b3 ad3d 6ef8 bf3c
000000f0: be97 5d3d a78c 9d3c fd05 16bd dc6f b6bc
00000100: 41f3 c7bc 602d 97bd 380e 8dbd dfcc 43bd
00000110: 5847 e9bc 1f9d 76bd cfcd b4bd 4911 66bd
00000120: 35d9 e9bd 2930 83bd 42a5 55bd d3f8 0bbd
00000130: 386e c0bd c03b cabd 4d27 60bd c776 623c
00000140: 34eb e7bc 126b c2bd 9c64 e5bd 96cc 08bd
00000150: 1584 e1bc 0def f4bc cebf a1bd bd6b edbc
00000160: 0e34 a9bc 015d b3bd ede9 cbbd a0aa 8dbd
00000170: d118 aabd aada 04be 618e fcbd c38d e2bd
00000180: 04c4 94bd 4b88 38bd 2eb8 abbd 0191 b3bd
00000190: e3c3 18be 832b 03be 47a7 01be 460b 7bbd
000001a0: db62 853c 2a72 bc3b 36d9 443c 9c40 52bd
000001b0: 3db1 b7bd 6cc8 66bd 575a 29bd 3af7 e2bc
000001c0: 51da a33d d14d 6e3d 74cc 823d c3f2 843d
000001d0: 17dd fb3c 0e18 843d cd4e cb3b a7d8 9f3d
000001e0: 96aa 853d 9f72 543d a5ee 3e3d 1d2a efba
000001f0: 8e9f 6c3d bd1e 963c c00b 9fba 5587 07bd
00000200: 2ad3 c03c 6d14 01bc 3310 053d 262a a8bc
00000210: ee70 b1bd 81b3 843d dc98 713d 85e9 6fbc
00000220: 2b3c c0bc 110f 6b3c c291 85bc 5f98 9b3c
00000230: b400 4d3c f391 1fbd 700b 013c 16cc 16bc
00000240: c072 483d 7f69 733b 3c34 66bd 7ec7 303c
00000250: afad 153d 4911 b93c 814e 80bb dd98 ad3b
00000260: 6e4e c0bc e139 823b df5b afbc 7d48 c7bd
00000270: ccc4 43bd ffa6 53bd 97ff d7bd f1cd 5bbd
00000280: cbd9 d2bc 6715 4bbc 9e66 09bd 11d7 4cbc
00000290: cf7d 84ba a76b 013b b644 00be 42f7 853b
000002a0: 1822 af3d 826d 6a3d 3cba b53b eafc fa3c
000002b0: 7bda e13b b3b2 e83c 0e9a a73c 994f a8bc
000002c0: 7e45 b03d e331 463d 1a65 6c3d b472 c03d
000002d0: 5475 083d 05d9 1c3a d805 873d a7ae 8b3d
000002e0: 9052 a33d f99c 993d 30d9 723d 0cc9 183d
000002f0: df67 9f3d b90b f83c 729c 863b 54f7 273d
00000300: c608 6abd ae9d a3bd 0abb 04be eaf6 56bd
00000310: 82e7 3cbd 20b2 debc e760 99bd 73cf d2bc
00000320: c903 13be db20 9ebd 2e58 d6bd fcf4 8abc
00000330: 809b 6ebd 1ea2 f3bd 6f33 4ebd 3e3c 82bd
00000340: 306e 25bd 341f 17be 4101 19be 9225 83bd
00000350: 4a9e c3bd 9270 80bd 6f1f 97bd 5db2 8bb9
00000360: 38b6 bebd 1fd9 763c 6e63 bbbd 7db3 d5bd
00000370: 23b8 f8bd c64c 31bd 53a6 52bd b310 febc
00000380: 38ba f53c 3ed9 423d 5bad 31ba 67a8 f43b
00000390: 9434 c63b c404 7ebd bd09 96bc abf7 ca3b
000003a0: a567 9b3c 5e15 8e3d 63b8 f1bc dbe1 1dbc
000003b0: 84b0 b33c 8a97 4f3c f6ef d13c aa9d 733c
000003c0: c696 2a3d c035 7b3d 1417 8f3d 03d0 e73d
000003d0: cfd3 773d 96d0 56bc cbd5 7e3d 018d b43d
000003e0: bdcc a33d 9425 1dbc 76c9 c23d 41c3 703c
000003f0: f5a9 ecbc c8fa df3c 446a e93c 5f2b 363d
-0.03683888 -0.060152058 -0.11079387 -0.117254265 -0.050862014 -0.102442995 -0.051616263 -0.05641092
-0.04344342 -0.16895832 -0.093384415 -0.05090401 -0.10844212 -0.11883196 -0.058806475 -0.058324635
-0.012302928 -0.05298022 -0.109299645 -0.106950015 -0.0709944 -0.034307525 -0.06509969 -0.013463357
-0.089386776 -0.05657832 -0.10132684 -0.10830901 -0.0752174 -0.11385452 -0.05949181 -0.12185087
-0.02049757 -0.08858634 -0.10935635 -0.032341927 -0.082460284 -0.067840815 -0.13298313 -0.07870007
-0.006556198 0.032892104 -0.059370928 -0.04530786 -0.02685977 -0.050945874 -0.057670493 -0.083011225
0.04219693 0.04641471 0.06701153 0.09198735 0.014696923 0.022095652 -0.010101524 -0.052120607
0.051161088 0.059218094 0.08481553 0.02343389 0.05409979 0.019232107 -0.036626805 -0.022270136
-0.024407985 -0.073817015 -0.06887478 -0.047802802 -0.028476402 -0.060208436 -0.088283174 -0.05616883
-0.11418382 -0.0640567 -0.052159555 -0.034172844 -0.093960226 -0.09874678 -0.05472498 0.013822264
-0.028310396 -0.09493078 -0.1120083 -0.033398233 -0.027528802 -0.029899145 -0.07897912 -0.028982038
-0.020654704 -0.087579735 -0.09956727 -0.0691731 -0.083055146 -0.12974039 -0.12331844 -0.11062195
-0.072639495 -0.045051854 -0.08384739 -0.08767892 -0.14918475 -0.12809567 -0.12661467 -0.061290048
0.01628249 0.005750914 0.012014678 -0.051331148 -0.089693524 -0.05634348 -0.04134592 -0.027705777
0.08000625 0.05817968 0.063866526 0.064916156 0.030745072 0.064499006 0.006204462 0.07804995
0.06526677 0.051867124 0.046614308 -0.0018246804 0.05776935 0.018325204 -0.0012134239 -0.033088047
0.02353819 -0.007878405 0.032486152 -0.02052791 -0.08664118 0.0647955 0.05898367 -0.014643078
-0.02346619 0.014346854 -0.016304854 0.018993555 0.012512375 -0.038957547 0.007876262 -0.009203931
0.04893756 0.0037141738 -0.05620216 0.01078975 0.03654259 0.02259125 -0.0039156084 0.0052977637
-0.023474898 0.003974185 -0.021406112 -0.09730623 -0.047795102 -0.05167293 -0.10546797 -0.053663198
-0.025738617 -0.012395239 -0.03354513 -0.012502448 -0.0010108295 0.0019748004 -0.12526211 0.0040883133
0.08551425 0.05723334 0.0055458825 0.030638177 0.0068925 0.028405523 0.020459201 -0.020545768
0.086070046 0.04838742 0.057713605 0.09396878 0.033315018 0.0005983266 0.065929115 0.06820422
0.07974732 0.07500643 0.059289157 0.03730111 0.07783484 0.030279027 0.004108005 0.041007355
-0.057137273 -0.079890594 -0.12961975 -0.05248157 -0.04611922 -0.027184546 -0.07489186 -0.025733685
-0.14356913 -0.077211104 -0.10466038 -0.01696252 -0.058253765 -0.11896156 -0.05034202 -0.063591465
-0.040388286 -0.14757997 -0.14941885 -0.0640365 -0.095516756 -0.06271471 -0.07379042 -0.00026645037
-0.09312099 0.015066414 -0.09149824 -0.10434625 -0.12144496 -0.043286107 -0.05142815 -0.031013822
0.029996023 0.04757046 -0.0006777846 0.007466364 0.0060487483 -0.062016264 -0.01831519 0.006194075
0.01897032 0.06937669 -0.029506868 -0.009636368 0.021934755 0.012670407 0.025627118 0.014869133
0.041647695 0.061330557 0.06986824 0.11318972 0.06050473 -0.013111254 0.062215608 0.08815957
0.07998035 -0.009591479 0.09511082 0.01469499 -0.028889636 0.027341262 0.028493054 0.044474956

actor_cnn.2.bias f4 [64]
00000000: 5744 d03c e316 56bb b409 a63c 6940 b53c
00000010: 8b23 31bc 47cd a33c 31fd 22bb 70ca 1cbd
00000020: ebe5 d83c f8c1 683b 8175 9cbc a515 d7ba
00000030: 26cb 07bd 44dd fcbc 1ccb c5ba 7b51 0ebd
00000040: 1973 8d3c dcbc dbbc ba19 13bd 7f8f 6e3c
00000050: 7c60 1dbd 4435 36ba 1af3 88bc 2947 913c
00000060: ab12 ee3c b790 e4bc 4a18 fd3c 3fba febc
00000070: 1a64 cd39 1f69 b03c b9d2 19bc cd35 0dbc
00000080: 72d9 6fbc 855b e93c 7f27 b1ba b1df 9a3c
00000090: 6a50 9a3b 589d 9f3c 2a2a 8ebc d49d 46bb
000000a0: 9fc9 4ebc e23b c03b c7c1 073b dfdf 8dbb
000000b0: 5089 99bb 56ba 93bc 7ed4 033b 3141 933b
000000c0: e68c e9bc 01c4 72bc a08e 4ebc fbf8 36bc
000000d0: 997f f0bc e718 673c d365 9b3c 19a1 ecbc
000000e0: ecd8 f0bc ed44 0d3d 1dab 263d a5f4 a73b
000000f0: 3b30 b8bc 7159 573b 64b7 9fbb 8fb0 99bc
0.025423212 -0.003266745 0.020268299 0.02212544 -0.010811697 0.019995345 -0.0024870152 -0.038278997
0.02647682 0.0035516005 -0.019098999 -0.0016409649 -0.03315272 -0.030867226 -0.0015090439 -0.034745675
0.017266797 -0.026823454 -0.035913207 0.014560579 -0.038422093 -0.0006950686 -0.016717482 0.017734127
0.029061636 -0.027901037 0.030895371 -0.031094668 0.00039175228 0.0215345 -0.009388619 -0.008618784
-0.014639245 0.028486023 -0.0013515799 0.018905492 0.004709293 0.019484207 -0.01735409 -0.0030306475
-0.012621312 0.0058665136 0.0020714866 -0.004329666 -0.0046855584 -0.018033188 0.002011567 0.0044938554
-0.028509568 -0.014817239 -0.012607247 -0.01116776 -0.029357718 0.014105058 0.018969452 -0.028885411
-0.029400311 0.03448956 0.04069053 0.0051255994 -0.022483936 0.0032859708 -0.004874157 -0.018760948

actor_cnn.2.weight f4 [64, 32, 4, 4]
00000000: 04bf ed3c 771c 9d3d 0ff3 943d 9c75 b23d
00000010: 0397 69bd 090e 11b7 2499 b83c 8664 8abc
00000020: 14f0 c1bd c716 a1bc 699a 5dbc 496c b5bb
00000030: 8e4d af3c d541 873d 7bed 1d3d 6f17 89bc
00000040: aee4 f93c 31db da3c 5884 893d 61cb 7e3c
00000050: fd99 69bd f70a 223d 2b10 023d 200b f13c
00000060: b9c5 f0bd 6425 95bd d27f 21bc 9dfa 1cbd
00000070: b27f 903d ddcc 943c 603c 153a 00ee 8e3d
00000080: 6730 5c3b e343 693c 2e25 833d 0c26 513c
00000090: 3370 8dbd d8ee 1b3d 4229 d7bb 2f67 97bd
000000a0: 9210 153d 1a3f b4bc aaf5 be3c 26fc b3bc
000000b0: 68a4 75bc 3072 69bc f897 5f3d f753 413d
000000c0: e424 ca3b 7e58 153d b3c4 f3bc 5270 9f3b
000000d0: fb30 8a3c 3007 bdbd 3314 f0bc dd8e b1bc
000000e0: 5edf 00bd e9b0 8dba be18 ddbc e739 743c
000000f0: 9cf5 c5bc f668 ed3d 3618 b23b 1209 2b3b
00000100: 3ccd c63d 5469 0e3e 48c7 823d 8404 913d
00000110: b78c 353d 6dcb 803d 145f da3c bc02 553d
00000120: bf50 c8bb c526 ba3d dca8 dcbc ff02 bc3b
00000130: e4be 663d 8e51 f03c 9bf6 243d 8310 3fbc
00000140: 57b8 c1bd 9cfc 29bd 4b3f 47bd 2822 f1bc
00000150: fc76 0539 75f3 95bc 04fb adbd 67e2 75bd
00000160: 5ecb 2b3d 3517 873c da6d 5a3d 37b1 213d
00000170: e2dc d33d 8663 60bd 63f6 0cbd 7c5e bb3d
00000180: a979 df3d 4f4e 8c3b 1762 62bd 3f5b 51bd
00000190: 31e3 ba3c 2e4c 593d f386 8c3d 9f59 2c3d
000001a0: cb4d b63c 65d5 703c c80e 893d 12a7 d73d
000001b0: a5ba c3bc 1223 953d 1e16 89ba 62c7 babc
000001c0: 3440 943b a675 ec3c 2969 a53c 9362 d83c
000001d0: fe78 3c3d f933 aabc 2829 063c ef04 bc3d
000001e0: df10 183d b094 b83d 932d c43c de9b a33d
000001f0: a96e 843c b5d8 153d 6549 833c 4b38 0bbc
00000200: aa5b 49bd d268 713d 007f 11bb 78c5 0cbd
00000210: d808 2cbd c114 efbc 52f7 3cbd bce2 f0bc
00000220: 916a cc3b da82 8a3d d450 833c 774a 063d
00000230: 9e66 bd3c d8d0 2b3d 2dcd 2d3d 058b f3bc
00000240: 596c c4bd 87fe 90bc 642c 39bd 11ba 723c
00000250: c9cd 2ebd 35c0 17bd f1a7 7ebd bc8f 00bd
00000260: be33 16bb 252b 803d f4ed d93c 09ae 9abc
00000270: 7a6b b03c 0784 e2b9 b4cb fdbc 0fd0 633d
00000280: 44f7 66bd 2d4c 06bd 051d 4bbc f4ff e8bb
00000290: e581 93bb 4f85 debd 695a 5abd 96f8 9dbd
000002a0: 8ead 083b 3349 c0bb c330 093d b865 37bd
000002b0: 1eec 9f3c 9cb1 743d 60ae 6ebc 7bc7 743d
000002c0: 716c 973d 3b9c 183e 6964 a73d f21b 4e3c
000002d0: d301 683d 1aa6 063d 823a 3e3b 1ae7 623d
000002e0: e85a 8b3d 317f 493c a99a 593d 3f52 33bd
000002f0: 352a 343d d97e f03c 91d7 4e3d d0ad a93c
00000300: e157 043a f0df 9a3a 2179 173c 1f41 ee3c
00000310: 7205 3a3d b0b2 413b 806a a03d 8dfb 47bc
00000320: 4f52 df3d 2814 913d e299 c83d af9f f83d
00000330: 02f6 f33c a753 be3d 5bf6 9e3d 7798 bc3c
00000340: ae13 863c c240 aa3c 1d41 933c d388 6d3d
00000350: 58eb 7cbd 360c 8fbd e4c7 39bd 523d 193d
00000360: 4cf5 5bbc e430 78bd 8b51 65bd 9512 a9bd
00000370: d70a 8bbc 251f b83d 2226 603d 910c 043d
00000380: 339f d43c 90ab 3ebd faaa 073d 465e abbd
00000390: c2cc 2a3d 5956 6f3c 418c 483c 15fb abbc
000003a0: f4c5 d83c 123e 0d3e 1022 0c3e 4758 fc3c
000003b0: 03b7 573d a468 8b3c 7306 aebc 494f f73c
000003c0: 9452 593c 6874 f0bb bbcd a93b 5ff1 45bd
000003d0: 8732 a33d 792e 313c 3a3d 69ba 7c68 2fbd
000003e0: 3436 5fbd b623 623d 8261 233d 8a12 0239
000003f0: 0eae 923d dcd1 9a3d 0edc 003c bb7c 073d
0.029021747 0.07671445 0.07272922 0.087138385 -0.05702878 -8.645941e-06 0.02253396 -0.016893636
-0.094696194 -0.019664181 -0.013525584 -0.0055365902 0.021399286 0.06604353 0.038556557 -0.016734807
0.03050455 0.026715847 0.06714696 0.015551419 -0.05703162 0.03956124 0.0317537 0.02942425
-0.117564626 -0.07282522 -0.009857135 -0.03832494 0.07055606 0.018164093 0.00056928955 0.06978989
0.0033598186 0.014237377 0.06403576 0.012765419 -0.06906166 0.038069576 -0.0065661976 -0.073927276
0.036392756 -0.022002745 0.023310501 -0.02197082 -0.014992811 -0.014248416 0.054588288 0.047199216
0.0061689485 0.036461346 -0.02975688 0.0048656845 0.016869059 -0.092298865 -0.029306507 -0.021674568
-0.03146302 -0.001081017 -0.026989337 0.014906383 -0.024164967 0.11592285 0.005435015 0.0026097936
0.09707114 0.13907367 0.06385666 0.070809394 0.04432365 0.062888004 0.026656665 0.05200456
-0.0061131413 0.09089426 -0.026935987 0.005737662 0.05633439 0.029335763 0.040274244 -0.011661652
-0.09458988 -0.041500673 -0.048644345 -0.029435232 0.00012728194 -0.018304566 -0.08495143 -0.060030367
0.041941993 0.016490558 0.05332742 0.039475646 0.103448644 -0.054782413 -0.03441466 0.09148881
0.10911877 0.004281796 -0.055269327 -0.05111241 0.022813411 0.053051166 0.06861677 0.042077657
0.022253891 0.014699315 0.066922724 0.10529913 -0.02389271 0.0728208 -0.0010458862 -0.022800151
0.004524255 0.028864693 0.020191746 0.026414191 0.046013825 -0.020776736 0.008188523 0.091806285
0.037125465 0.09012735 0.023947513 0.07988714 0.016166048 0.03658362 0.016026208 -0.008497308
-0.049159683 0.058937855 -0.0022200942 -0.03436801 -0.04200062 -0.0291847 -0.0461343 -0.02940499
0.0062382896 0.06763239 0.016029753 0.03278586 0.02312022 0.041947216 0.042432 -0.029729376
-0.09590978 -0.017699493 -0.04520835 0.0148148695 -0.04267672 -0.037048537 -0.06217188 -0.031387076
-0.0022919024 0.06258229 0.026602723 -0.018881815 0.021535624 -0.00043204447 -0.030980922 0.055618342
-0.056388155 -0.03278749 -0.0123970555 -0.00711059 -0.0045015686 -0.1086527 -0.053308878 -0.0771343
0.00208554 -0.005868101 0.03349377 -0.04477474 0.01952177 0.059739694 -0.014567941 0.059760552
0.073937304 0.14903347 0.081734486 0.012579905 0.056642365 0.03287325 0.0029026573 0.055396177
0.06804448 0.012298391 0.05312601 -0.043779608 0.043985564 0.02935736 0.05049855 0.020712763
0.00050484954 0.0011816006 0.009245188 0.029083787 0.04541535 0.002955597 0.07832813 -0.0122059705
0.10904371 0.070839226 0.09794976 0.12139832 0.029780392 0.09293299 0.07761832 0.02302192
0.016366806 0.020782832 0.017975384 0.057991814 -0.06174788 -0.06984751 -0.045356646 0.037411995
-0.013425183 -0.0605935 -0.05598597 -0.08255497 -0.016972942 0.08990315 0.054723866 0.032238547
0.025954818 -0.046550333 0.03312204 -0.083675906 0.04169918 0.014607989 0.01224047 -0.020993749
0.026461579 0.13793209 0.13684869 0.030803813 0.052664768 0.01701767 -0.02124331 0.030189173
0.013264317 -0.0073380955 0.0051819957 -0.048325893 0.07968622 0.010814303 -0.0008897368 -0.042824253
-0.05449505 0.055209838 0.039887913 0.00012404672 0.071621045 0.07559559 0.007864965 0.033077937

actor_cnn.4.bias f4 [64]
00000000: 92c7 6c3c c0d6 e03b 687c 813b decb 663c
00000010: d0ff 003c f35a a53c 874a ccbc a2ad 82bc
00000020: 14b6 0a3b eab8 c23c 297f 60bc 2cee 6cba
00000030: 1368 1dbc abe7 2abc 0fa2 313b cfe0 373c
00000040: 38f8 dc3c 246a 00bc 62c9 953b 837a b6bb
00000050: b0ee f0bb d7ad 2abc 0d73 223c 2b6c 07bc
00000060: e8bd 6d3c fec9 a43c 2741 8c3a 9fb7 4bbc
00000070: a145 d03b 5831 cc3c e01f 8a3c acbd 683c
00000080: 4910 a2bc 0648 f6bc 3aad 713b 4f8d f43b
00000090: d122 3d3a bb5f cf3c a7e7 c73c 6cbb 97bb
000000a0: 0e9c dc3a 4a58 ccbc 71ee acbb 187b 7bbc
000000b0: b69c 363b ac07 ef39 9394 6c3c 61ad 053b
000000c0: 38e5 a23c e1d6 8b3c dbfd 0d3b aa9d 483b
000000d0: 3b56 c4ba 760a 7bbb 8ba2 5d3b f361 a43c
000000e0: 9c04 523c 39a5 383c bd9b 56bc 9f0d 2dbc
000000f0: c5c8 11bc 9920 863c d278 ed3b 1ebd 8d3c
0.014451878 0.0068615377 0.003951598 0.014086692 0.00787349 0.02018497 -0.024937881 -0.015951935
0.0021165656 0.023769815 -0.013702192 -0.0009038176 -0.009607333 -0.0104312105 0.002710465 0.011223032
0.026973829 -0.007837806 0.004571126 -0.0055688038 -0.0073526725 -0.010417423 0.009915126 -0.008265535
0.014510609 0.020115849 0.0010700569 -0.012433915 0.0063559567 0.024925873 0.016860902 0.014205378
-0.019783156 -0.03006364 0.0036876933 0.0074631344 0.0007214966 0.025314203 0.024402453 -0.0046304967
0.0016831176 -0.024944443 -0.005277448 -0.015349172 0.0027864403 0.00045591348 0.01443972 0.0020397531
0.01988469 0.017070236 0.0021666202 0.0030611553 -0.0014979312 -0.0038305796 0.0033818807 0.020066237
0.012818482 0.011269861 -0.013098654 -0.01056233 -0.008897965 0.016372966 0.007247069 0.017302092

actor_cnn.4.weight f4 [64, 64, 3, 3]
00000000: ef09 89ba 86cc efbc 5ea0 49bd 6938 1a3d
00000010: 2029 a73d b903 4a3d 619d 823c 7433 b4bc
00000020: 40dc 14bd a51c f13c a928 7d3b 75b5 4d3d
00000030: 2f7a 34bd 2695 273c 0158 9fbd a406 a33d
00000040: 7916 283d d771 e53c aecd 1b3c 3fd2 77bc
00000050: 5b15 0dbd e3f2 bd3c a2cb ecba 4ac1 e4bb
00000060: 7445 7b3c 2bae 233d 8b22 6eba b165 b83b
00000070: ebfa 78bd 02ad 843b e56d adbd a5c9 b53d
00000080: f01c 4f3d cfe5 7ebd a246 b23c d54d 1fbd
00000090: 9dcf 803c 9e82 123d ba6f eb3d 5b83 5dbd
000000a0: df58 92bd bc1a 61bd f077 933d e663 8e3b
000000b0: df9f 973d a5e2 833b de55 1bbc 5acc 563c
000000c0: a5aa 0f3e cd04 013c 1ec2 ae3c dd33 4d3d
000000d0: 60b1 0e3d 6847 bdbc df24 ed3c 0e1d 903d
000000e0: 55ff 743d db88 87bc 85fb 883d bc9a 5b3d
000000f0: ce4c cb3c 7139 583d 2f89 50bd 691d c5bc
00000100: ff64 1cbd 2e5b f3bc 372b f3bc 4d6a 39bb
00000110: 5a7f 09bd aa5a 4abc 6bc2 f2bc c5ad bb3d
00000120: 04cd 2e3d e6c8 9abb a670 50bd 54af d13c
00000130: bbad 6c3d 6d35 3e3d 5325 483c d86a 513d
00000140: da75 1ebc 61c3 bf3d 70da 11bc 96aa 943d
00000150: da24 98bd 0172 03be dca1 24bd 81f1 15bd
00000160: 7e6b da3b e4ad dd3c bbbf 413d b828 08bd
00000170: 4c29 97bd 0df0 66bd b042 b6bd 1b79 2a3d
00000180: 24c7 27bd 92b1 ebbc bdcb 7d3c 2143 8ebd
00000190: 28ad 47bb 8771 7ebd e13f 693c 0771 c7bb
000001a0: f6dd 9e3d 04f5 8c3d 1533 1a3d bde8 523d
000001b0: 8018 d1ba ece7 9c3d 02be a23b 5505 cbbd
000001c0: 2894 2b3c 2ca9 8a3b 5169 233d 0a77 fdbb
000001d0: 17be aa3d aeac df3d 66da 6bbb b472 3dbd
000001e0: b84a a23d 203c bd3d a7db 293e eb32 3a3d
000001f0: 3ada bcbc ee20 973d f48e bfbc c0ec 85bd
00000200: d785 cabd 1443 443d 4a1f ec3c ee33 69bc
00000210: 1d97 48bc acd0 0e3d b32b e7bd 187c b63d
00000220: 4c69 07bd 0599 d4bb 5943 2cbd b3ce 05be
00000230: 142e e6bd 45fc bdbc fc15 acbb 106f 543d
00000240: a842 cbbc 7025 a93d e220 3a3d 870d f13b
00000250: 14aa 8dbd ffb7 d1bc 7a42 b73d adea 3f3d
00000260: cff9 8c3c d461 82bb 90b6 1abd 6258 023c
00000270: e2c5 26bd 44f3 15bc 1188 c63c 964d e03d
00000280: b79b 173d 7f99 763c 879a 123d 9f94 7abd
00000290: 39e4 613d cf29 18bb 7dc5 073d fe93 c53b
000002a0: b072 31bc 7998 633d eb57 523d 8ed5 c63c
000002b0: c225 163c dfa4 2ebd a392 e9bc ad8f 90bd
000002c0: 11b1 073a 247e 83bd f983 b83d b6ea bc3d
000002d0: c75e 3fbd 6414 84bb b186 77bd 07ec 103c
000002e0: b967 ac3b fb2b 59bd 1a35 673c d783 d63c
000002f0: a0f1 a5bc 8b24 cfbc 4f42 c9bd a6e6 223c
00000300: c503 e5bc a4dc 6dbb f59e 113e 8ef5 e1bb
00000310: 04cc ca3b 6f32 8c3d 224c ebbd c9c4 79bd
00000320: 71b7 bebc 5c37 633d 0bc1 7d3d 0f3c 0bbd
00000330: f9d0 bf3d 1393 dcbc da2d bcbb c867 933d
00000340: 89b1 023b 0a66 5cbd f457 adba 371b e33d
00000350: 9606 373c c654 a2bd e372 993c c18e 13bd
00000360: e1bd c4bc b210 d43c 73fa 033d 26be ccbc
00000370: 601a 823c 9d91 83bd 864c aabd af67 94bc
00000380: 3a9b 5c3c b7c6 a3bd b6c8 2dbd a938 2c3d
00000390: 781c 733d a1a8 35bd 36c5 b03b ca27 2bbd
000003a0: b99f 573d 1d05 663d cbee 3c3d e53a 29bb
000003b0: ae87 9cbd 01fb ae3d ce2d c9b9 0707 823d
000003c0: 3d95 a5bd d78d ea3c 62ff 2b3c 728f 813c
000003d0: c69c 10bd 581d 86bd 201c 63bd 1015 c7bc
000003e0: ba7f 85bd 95f7 363c 001e b9bb 00e1 ac3d
000003f0: 52ea 763d a002 43bd 13a7 83bd 6c5e 12bd
-0.0010455231 -0.029272329 -0.049225204 0.037651453 0.08162141 0.049319956 0.015944185 -0.021997191
-0.03634286 0.029432604 0.0038628972 0.05022188 -0.044061836 0.010228431 -0.07780457 0.07960251
0.041037057 0.028008385 0.009509487 -0.01512581 -0.034444194 0.023187106 -0.0018066058 -0.0069810497
0.015336383 0.03996102 -0.0009084127 0.005627357 -0.06078617 0.0040489445 -0.08468226 0.08876351
0.050564706 -0.06223088 0.021762196 -0.038892586 0.015723998 0.035769098 0.114959195 -0.05408035
-0.07145857 -0.054957137 0.07200611 0.004345405 0.0740354 0.004024821 -0.009480922 0.013110245
0.1402994 0.00787468 0.021332797 0.05009829 0.034837127 -0.023105338 0.028948246 0.07036792
0.059813816 -0.01654475 0.066885985 0.053614363 0.024816897 0.052789155 -0.05091208 -0.024061875
-0.038182255 -0.029706564 -0.029683692 -0.002829212 -0.033568718 -0.012350718 -0.029633721 0.09164003
0.042675987 -0.004723656 -0.05088868 0.025596298 0.05778287 0.04643767 0.01221593 0.051127285
-0.009671653 0.093634374 -0.008902177 0.07259099 -0.07428904 -0.12836458 -0.040193424 -0.03660727
0.006665646 0.027060457 0.04730199 -0.033241957 -0.07380924 -0.056381274 -0.088994384 0.0416194
-0.0409614 -0.028771196 0.0154904695 -0.069463976 -0.00304682 -0.062119987 0.014236421 -0.006086472
0.077571794 0.068826705 0.037646372 0.051491488 -0.0015952736 0.07661423 0.0049664984 -0.099131264
0.010472335 0.0042315926 0.03989536 -0.007735138 0.08337038 0.10921608 -0.003598833 -0.046251968
0.07924408 0.092399836 0.16587697 0.045458715 -0.023053277 0.07379328 -0.023383595 -0.06539297
-0.09888809 0.047915533 0.028823514 -0.014233572 -0.012243059 0.034866974 -0.11287632 0.08910388
-0.033059403 -0.006487968 -0.042056415 -0.1306713 -0.112392575 -0.02319158 -0.005251644 0.05186373
-0.024812058 0.08259094 0.045441516 0.007356349 -0.069172055 -0.025600431 0.08948226 0.046854664
0.017208962 -0.003978947 -0.03777176 0.007955642 -0.04071606 -0.009152237 0.024234803 0.10952298
0.037013736 0.015051245 0.0357919 -0.061176892 0.05514929 -0.002321828 0.033147324 0.006029605
-0.010830566 0.05556533 0.051353376 0.024271753 0.009164276 -0.042637702 -0.028512305 -0.07058654
0.0005176226 -0.06420544 0.09009547 0.09224455 -0.046721246 -0.004030751 -0.060431186 0.008845336
0.005261388 -0.05302046 0.0141117815 0.026185913 -0.020256817 -0.02528598 -0.098271005 0.009942686
-0.027955899 -0.0036294842 0.14220794 -0.0068957275 0.0061888713 0.06845557 -0.114891306 -0.060978685
-0.023280831 0.055472717 0.06195168 -0.033992823 0.0936603 -0.0269256 -0.0057427706 0.07197529
0.0019942245 -0.05380825 -0.0013225065 0.11089175 0.011171004 -0.079263255 0.01873154 -0.036024813
-0.024016323 0.025886867 0.03222127 -0.024993014 0.015881717 -0.06424258 -0.08315377 -0.018115846
0.013464743 -0.07996886 -0.04242774 0.042046223 0.05935332 -0.04435027 0.005394603 -0.041785993
0.052642558 0.05615722 0.04612617 -0.0025822457 -0.07643066 0.08543969 -0.00038371835 0.063489966
-0.080851056 0.028632088 0.0104979 0.01581547 -0.03530576 -0.065485656 -0.055446744 -0.024302036
-0.065185025 0.011167427 -0.005649328 0.08441353 0.06028206 -0.047609925 -0.06428351 -0.03573458

actor_cnn.7.bias f4 [10]
00000000: 2ebd be3d f1d6 f33d e253 043e 48f9 c23d
00000010: 7966 ca3d 1441 e73d 4942 d23d 9fa4 c83d
00000020: c88c ad3d ae53 eb3d
0.09313427 0.11906231 0.12922624 0.09520203 0.09882826 0.112917095 0.10266549 0.09797024
0.084741175 0.1149057

actor_cnn.7.weight f4 [10, 768]
00000000: 9358 3d3d 6171 b3bc 7fb1 4abd 630c e23d
00000010: f0fc 08be 991d b2bd c387 03bd 7376 9b3d
00000020: 747a 15be 8d25 ab3d 4421 693d 980a 27be
00000030: dfbc b9bd 0cde 993d 4a17 21be f29e 86bd
00000040: 7a08 263d 8553 aebc 6325 f8bc 3e61 f13b
00000050: 90bd 9ebd c6e6 0bb9 825a 983d c067 a43d
00000060: da27 193e 1403 8dbd 2b46 c9bd 1f90 eabd
00000070: 1aee 57be d6fd d93c b190 34be 98aa 8e3a
00000080: ae2b 2fbc 3de8 c33c 2cd4 d23d d55b 11be
00000090: 1080 3f3e c4c0 de3d 45db c53e 696b 923c
000000a0: 374d f83d d4f5 88be b7d6 90bd ed80 89bd
000000b0: 57bb 2c3d 223f c9bd 05a4 e1bd 2451 a3be
000000c0: b5e3 ffbc a215 5abe b89f 52bc 869b 89bd
000000d0: 13aa 19bd 948e c8bd f4d2 5cbd 2763 b6bd
000000e0: 6069 133e 2a53 abbb 6e6c e5bd 6224 edbd
000000f0: f05a acbd d28f 15be 9b2d 983d 74b1 f33d
00000100: 595a 13bd 98f3 273a 7feb ca3c 0626 12be
00000110: 2fe0 1c3e ce76 cebd 9c35 d73d 5998 143d
00000120: 831c 053e 770e fdbd b5cf 623d 16f7 4c3d
00000130: 1130 0d3d 677d 45be e3e8 e5bd 3264 003e
00000140: 6150 e03d f307 ab3d 0554 e93d feed 8d3d
00000150: 6377 273e f578 e8bd 29fc 9bbd 7c76 0ebd
00000160: 0255 6bbd 07b3 87ba ece5 2e3e cadb 09bd
00000170: b60f 8bbd b83e 6ebd adb5 133d c401 c63d
00000180: 5107 f23d a705 b53b 1535 0b3e b259 e8bd
00000190: 58b9 493d b818 1e3c 8649 4fbd 177f 383d
000001a0: 5376 7e3d 0264 613d cd19 e33d 93b7 51bd
000001b0: 07cd 323a 52d9 86bc b6cc 063e 1f21 ebbd
000001c0: d884 08bb 21a4 4cbe 13ac d0bd 16f0 11bd
000001d0: e1c3 eebc c222 0abe 805a 3dbd 3954 39bd
000001e0: b14a b23d 4d5e fc3d 7ffb 3d3d 773e 663d
000001f0: ee26 09bd 5b78 3f3d 51bc 4cbd 3557 26bd
00000200: a287 af3d 60ca 7e3e a840 e03c 6953 3b3e
00000210: b635 0abe 682e b9bd c777 ccbd c330 593d
00000220: 4fd9 edbd 2157 873d b7c1 3e3e 8b2a 9d3e
00000230: ba50 fe3c bde0 a13d b1f6 8aba 8e56 0f3d
00000240: e54f de3d b568 15bd f7fb c8bd 285d 273c
00000250: a871 563d a410 333d 95fd 083e b618 afbc
00000260: cc31 88bd 033b e5bc b40d 54bd dcab a5bc
00000270: e8f9 68bc 823e ef3d 3be9 dabc 0706 5a3e
00000280: cf78 e83b 8f5a b0bc c540 f1bd f013 fa3c
00000290: af87 cabb 5b6c a8bc 04d3 84bd 52fb 41bd
000002a0: 4c82 2c3e 9784 84bc bb71 8f3d 8d50 823d
000002b0: e416 313e 8dff 66be 8db8 4ebe 4345 c0bb
000002c0: a857 783c 096c 99bc 9d12 283b 8841 04be
000002d0: bc82 4dbd f705 9f3c 5d34 9e3c 4fd0 c13d
000002e0: 9e5e 803c 7aab ca3d 5d1b aa3d c606 44be
000002f0: 547f 843d ff25 aabc ab9a 493e 5aff 89bd
00000300: a415 42be 088d c2bd 2f28 65bd 0a39 9dbc
00000310: c869 413d 6a1f 613d bd50 223d 2cdf d13c
00000320: bacf d2bc 38b4 30be f903 d03d e3c2 bbbd
00000330: 2c3d dabe 7e22 273e db98 25bb 1213 a83c
00000340: 7af3 b53d f726 9f3c f0e3 263d c201 2ebe
00000350: 3868 63bd 57b0 c2bc 193a 28bd a85d bc3d
00000360: cef6 c6bd e3d5 623e fa25 d4bd b280 893d
00000370: e01b 943c c361 67bd 15ff c8bd 6283 6abe
00000380: 3a79 173d 2b2e d63d 9455 f03d 5b79 8f3a
00000390: 944b 0abe 1675 bd3d defe f33d c8ba 0f3d
000003a0: 4ec7 bf3d 6608 83bd 0837 ff3d 18b9 a03d
000003b0: 3215 7e3c 1aa0 c63a d062 af3d 1c7e 3cbe
000003c0: 6aba f43c d7b4 063e ad60 9ebd b127 97bd
000003d0: 6125 073c bf23 08be c04e d0bd 1831 0b3e
000003e0: 4e65 93bc 2dc5 29bd 4c2e 6bbb aca5 643d
000003f0: ce94 91bb cca7 603c b6c0 bdbd 60ba 9fbc
0.04622705 -0.02190465 -0.04948568 0.11037519 -0.13377738 -0.086970516 -0.032111894 0.07590952
-0.14597493 0.083567716 0.05691649 -0.16312635 -0.090692274 0.07513055 -0.1573154 -0.06573285
0.040535428 -0.02128006 -0.030291265 0.0073663285 -0.07751 -0.00013342043 0.07439138 0.08027601
0.14956608 -0.06885353 -0.098278366 -0.1145327 -0.21086922 0.026610296 -0.1763332 0.0010884581
-0.010691566 0.02391445 0.10294375 -0.14195187 0.18701196 0.10876611 0.38643852 0.017873483
0.121241026 -0.26750052 -0.070722036 -0.06714044 0.04217085 -0.09826495 -0.11017612 -0.31897843
-0.031236509 -0.21297315 -0.012855463 -0.06719117 -0.03751571 -0.097928196 -0.053912118 -0.089056306
0.14395666 -0.00522842 -0.11202322 -0.11579205 -0.084157825 -0.14605644 0.074305736 0.11899081
-0.035974834 0.0006406843 0.024770496 -0.14272317 0.15319894 -0.10081254 0.10508272 0.036278103
0.12999158 -0.123562746 0.055373866 0.050040327 0.034469668 -0.19286118 -0.1122606 0.12538221
0.10952831 0.083511256 0.113929786 0.06930159 0.16354136 -0.11351196 -0.07616455 -0.034780964
-0.057454117 -0.0010353037 0.17079896 -0.033656873 -0.06790106 -0.058165282 0.03606193 0.096683055
0.11817802 0.0055243555 0.13594468 -0.11345233 0.049249023 0.009649448 -0.050607227 0.045043077
0.06212456 0.055027016 0.110889055 -0.05120046 0.00068207126 -0.016461048 0.13164029 -0.11480927
-0.0020831134 -0.19984485 -0.101890706 -0.035629354 -0.029146137 -0.13489822 -0.046228886 -0.045246337
0.087056525 0.12322674 0.046382423 0.056211915 -0.033484392 0.04674564 -0.04998428 -0.04061051
0.08570792 0.24881887 0.02737458 0.18293537 -0.13497052 -0.090420544 -0.09983783 0.05302502
-0.11613714 0.066084154 0.18628584 0.3069652 0.031044353 0.079041936 -0.0010602084 0.034994654
0.108550824 -0.03647681 -0.098136835 0.010215081 0.052354485 0.04371704 0.13377984 -0.021374088
-0.06650123 -0.02798224 -0.05177088 -0.02022355 -0.014219739 0.11681844 -0.026722541 0.21291362
0.0070944796 -0.021527557 -0.11779932 0.030527085 -0.0061807255 -0.02055948 -0.064855605 -0.04735882
0.1684658 -0.016176505 0.07004114 0.0636302 0.17293888 -0.22558422 -0.20187588 -0.0058676316
0.015157618 -0.018728273 0.002564586 -0.12915623 -0.050173506 0.019412024 0.019312078 0.0946356
0.015670117 0.09895988 0.083060004 -0.19143209 0.064695984 -0.020770071 0.19687907 -0.067381576
-0.18953568 -0.09499556 -0.055946525 -0.019192237 0.04722002 0.0549616 0.03962778 0.025619112
-0.025733817 -0.17256248 0.10157008 -0.09168031 -0.42624795 0.16321751 -0.002526811 0.020516906
0.0888433 0.01942776 0.040744722 -0.16992858 -0.055519313 -0.023765726 -0.04107103 0.09197551
-0.09715043 0.22151904 -0.10358806 0.06714 0.018079698 -0.056489717 -0.09814278 -0.22901681
0.036980845 0.104580246 0.11735073 0.0010946201 -0.13505393 0.09250848 0.119138464 0.035090238
0.09364186 -0.06398086 0.12461668 0.07847804 0.015507983 0.0015153915 0.08563769 -0.18407482
0.029874045 0.13154922 -0.07733283 -0.073806174 0.008248658 -0.13294886 -0.1017127 0.13592947
-0.017992642 -0.041447807 -0.003588575 0.05582206 -0.0044427877 0.013711881 -0.09265272 -0.01949805

actor_fc0.bias f4 [10]
00000000: a15a 493e 4896 883d 6e43 b83d 6d38 af3d
00000010: f40d 1d3e 77cb df3d 4484 e63d 13cb 083e
00000020: 5892 fb3d 0ba7 de3d
0.19663478 0.06669289 0.08997236 0.08555684 0.15337354 0.1092748 0.112556964 0.13358717
0.12283772 0.10871705

actor_fc0.weight f4 [10, 2]
00000000: 1783 263e 8d8f 0fbe 5127 39be 1eb1 c7bd
00000010: 6526 2a3e d6c5 743e 36b5 ff39 32fc f7bc
00000020: eb14 1a3e 67e1 a7bd 4306 45be c7e0 83bd
00000030: e097 47ba e7bc 0a3e 6fcd f3bc 9a35 be3c
00000040: 1f27 053d fbad ed3d 7337 c03c f300 2ebd
0.16260944 -0.14019604 -0.18081404 -0.09750579 0.16616209 0.23903593 0.00048772403 -0.030271623
0.15047042 -0.08197289 -0.1924067 -0.06439357 -0.00076138787 0.13548623 -0.029761044 0.023218919
0.032508012 0.1160545 0.02346394 -0.042481374

actor_fc1.bias f4 [10]
00000000: 1109 da3d 71a0 e93d e479 ac3d f572 fa3d
00000010: c96f bc3d 7cf5 d93d fab3 003e 0a97 db3d
00000020: e1bb aa3d b320 043e
0.106462605 0.11407555 0.08421686 0.122289576 0.09201009 0.106425256 0.12568656 0.10722168
0.08336616 0.12903099

actor_fc1.weight f4 [10, 20]
00000000: efdf 1dbe c176 50bd 3b99 653e d690 93bd
00000010: ca09 473c f380 f3bc e8bd 97bc 1214 3a3e
00000020: 668f 103e d44f 663e bc5b b93c 376d 26be
00000030: 5c2a 193d 7836 ed3d 4c6c 87bd 4af8 35be
00000040: 2d0f 2c3e 18ae 913d a221 5e3e 61e1 a7bd
00000050: 10f2 5d3e f1f9 a9bc cc3a c93d b4db 153d
00000060: 6e06 8cbc a564 083d ed16 7d3d e069 3d3e
00000070: 0bd0 8abd 21ae 77be acde 01be a23a ee3c
00000080: 972e a8bc 5aae b8bc ccc7 8bbd 785e 8fbd
00000090: 4c35 1dbc 55a6 e1ba 436a bc3d e325 b33d
000000a0: 8b7f c73c ff06 a3bd 6a8c b83c b00b 03be
000000b0: 2bc7 bfbd 8105 b6bd 7e7d e8bd ab17 ad3d
000000c0: 073d 96bd f2b1 5cbd 08a8 44be 0309 d23d
000000d0: 6ff4 1f3e 30ba 31bd 934d bc3c ce87 1a3e
000000e0: b3af 103e 7843 42be df4a 0f3e 601d b9bd
000000f0: 29a9 b9bd de3f 793d e1df a03d 707f 9fbd
00000100: 0a3b 57be 8920 043e 55c2 b2bd 1040 05be
00000110: 1f46 29be 028f 313e 0686 373e 635d efbc
00000120: f99c 27be 48d1 373c 8f4c 4c3e 75b1 5c3c
00000130: d840 11be 3ed1 383d b693 193d 7b4d 1bbd
00000140: e21b 1f3d 7bf8 e9bd e8e2 cabd 02dd 9cbc
00000150: 2274 94bd ca32 92bc 81aa b83d 746e 1fbe
00000160: 624c b53c 3358 29bd c98d 8abc 29ec b83c
00000170: bd42 32bd 205c dc3c 963b 4f3c 71d9 4ebe
00000180: 1f56 493d ad7c 70be c163 31bb ee3d 7c3d
00000190: f869 b13d b918 00bd b409 78bd 14f7 483e
000001a0: 4f73 86bd a500 4cbd 2575 09be 4c20 62bd
000001b0: 97ae f2bc 39f0 ccbd 3e7f 57be 3dba ebbd
000001c0: 2518 3ebb 5e21 213d 4c14 193e 2a13 f1bd
000001d0: 8e59 063e 4ac1 b63c e153 8b3c 6083 2a3e
000001e0: 7389 c8bd 7c47 463e 22fe 09bd 1fa8 20be
000001f0: b384 8cbb b3e6 d6bc a46f 143d 7ec8 4dbe
00000200: a33f 44be d5cd 843c 324e 923b 8a07 29bd
00000210: 6153 323d fd56 273e fe3c e03d 6b9a d2bd
00000220: dc09 4b3c 2aa6 17be 5f7b de3b dd4e a83d
00000230: e96f 593e 3766 03bb 4cb2 7c3e d8d2 873c
00000240: d79a 3ebd c968 61be c859 943d 75ec 6e3e
00000250: a651 ffbc 1c76 673b 9e71 ce3d 43ce 843d
00000260: 8b34 513d 2936 bbbd 608a 5a3d d1e7 163e
00000270: 15ea fcbd 4f52 24be 7efa 043d af51 d73d
00000280: b4d3 103e b173 51be 49bd ffbc 6443 dabd
00000290: 2546 183d 011c 44bd b309 8e3d d2ba 9c3d
000002a0: 02b9 debd 8001 d2bd b7c8 bfbd 510c f2bc
000002b0: d2cf 33be 5e4a 56bd 7909 32be 65c5 e23d
000002c0: 1aaf 173c fecc 553d 2df7 e4bd 05e4 edbd
000002d0: 7be4 213c 0373 fd3d ef8a 0d3e 3db7 85bd
000002e0: a41d ec3d 5b84 a3ba 0747 983d 1935 9b3d
000002f0: a3b4 f8bd ec1e 4d3c c456 bd3d a79c 5a3d
00000300: 24f8 abbc c37e 173d 7af0 85bc 5c55 2e3e
00000310: 2d05 84bb b538 88bd cca4 3cbe c683 90bd
-0.15417455 -0.050894503 0.22421734 -0.0720536 0.01214833 -0.029724574 -0.018523172 0.18171719
0.14117202 0.2249139 0.02262675 -0.162526 0.037393913 0.11582655 -0.06612453 -0.17770496
0.16802664 0.07113284 0.21692517 -0.081972845 0.21674371 -0.020749064 0.09825668 0.03658648
-0.01709291 0.033299107 0.06178944 0.1849742 -0.06777962 -0.24187519 -0.12682599 0.029080693
-0.020530028 -0.022544075 -0.068252176 -0.0700044 -0.0095952265 -0.0017215709 0.09199955 0.08747461
0.02435281 -0.07960319 0.022527892 -0.12797427 -0.0936416 -0.088877685 -0.11352061 0.0845178
-0.07335859 -0.05388064 -0.19204724 0.10255625 0.15620588 -0.043390453 0.022986209 0.15090868
0.14129524 -0.1897105 0.13993405 -0.09038806 -0.09065468 0.060851924 0.078552015 -0.07787979
-0.21018615 0.12903036 -0.08728472 -0.13012719 -0.16530655 0.1733971 0.1792222 -0.029219335
-0.16368474 0.01121933 0.1995108 0.013470043 -0.14184892 0.045121424 0.037494384 -0.037915688
0.03884495 -0.11424347 -0.0990656 -0.019148353 -0.07248713 -0.017846484 0.09016896 -0.15569478
0.022131149 -0.04134388 -0.016913312 0.022573547 -0.043520678 0.026899397 0.012648484 -0.20200135
0.049154397 -0.2348506 -0.0027067515 0.0615825 0.0866279 -0.031273577 -0.06055613 0.19625503
-0.06564962 -0.049805302 -0.13423593 -0.055206582 -0.029624267 -0.10006756 -0.21044633 -0.115101315
-0.002900609 0.039338462 0.14949149 -0.117712334 0.131201 0.022308964 0.01700777 0.16651678
-0.09791841 0.19363207 -0.033689626 -0.15689133 -0.00428828 -0.026233053 0.03623928 -0.20096013
-0.191649 0.01621143 0.004464888 -0.041266955 0.043536548 0.16341777 0.10949133 -0.10283359
0.012392487 -0.1480948 0.0067896093 0.08218167 0.21234097 -0.0020049938 0.2467739 0.01658003
-0.046534386 -0.22012629 0.07243687 0.23332389 -0.031166863 0.0035318201 0.100802645 0.06484654
0.0510755 -0.091411896 0.05335462 0.14736868 -0.12349335 -0.16047023 0.03246545 0.10513627
0.14143258 -0.20454289 -0.031218188 -0.10657385 0.03717627 -0.04787827 0.06935444 0.07652821
-0.10875131 -0.10254192 -0.09364455 -0.029546889 -0.17559746 -0.052317016 -0.17386426 0.11072806
0.009258056 0.05219745 -0.111799575 -0.11615757 0.009881134 0.12375452 0.1382253 -0.065290906
0.11529091 -0.0012475358 0.074354224 0.07578487 -0.12143829 0.012519579 0.09245065 0.05337205
-0.020992346 0.036986124 -0.01635002 0.1702475 -0.0040289373 -0.06651441 -0.1842224 -0.07056384

actor_fc2.bias f4 [2]
00000000: 4aff e33d a95e 9d3d
0.11132677 0.076840706

actor_fc2.weight f4 [2, 10]
00000000: d16c e3bb dc3b 48be 8dcf c43c 9159 783e
00000010: cc6f 22be 3dfe 44be d67f e23d 48b2 04be
00000020: 1a15 4d3c 0044 ea3c cbc6 c83e 7370 40bc
00000030: d4ec 5f3e c275 7dbd 9737 2e3e b609 1f3e
00000040: 5b96 2ebd c8e6 d5bd 3735 583e 2790 26be
-0.006940462 -0.19554085 0.02402475 0.24252917 -0.1586296 -0.19237609 0.11059539 -0.12958634
0.012517238 0.028596878 0.39214167 -0.01174556 0.21867687 -0.06187988 0.17013393 0.15531048
-0.04262386 -0.10444409 0.2111405 -0.16265927
