data/sensor/neural_nets/gvsets_test.onnx (onnx, 365326 bytes, 18 tensors)

actorMLP.0.bias f4 [10]
0.033247985 0.14916459 0.01121371 0.1622507 0.18566887 0.016568126 -0.171238 -0.00675924
0.18591796 0.22048362
00000000: 0a2f 083d 9abe 183e b5b9 373c 0c25 263e
00000010: fb1f 3e3e e1b9 873c 0459 2fbe 9d7c ddbb
00000020: 4761 3e3e 75c6 613e

actorMLP.0.weight f4 [10, 2]
0.011271599 0.55309874 0.0034790214 -0.2322072 -0.08912433 0.31957722 0.14307861 -0.16628091
0.05381579 -0.041026957 -0.08497676 0.18971577 -0.20615302 -0.0693031 -0.19897033 -0.14730965
-0.009909299 -0.24925314 -0.024383537 -0.14677855
00000000: 83ac 383c e197 0d3f 4b00 643b b9c7 6dbe
00000010: d186 b6bd a09f a33e 3383 123e 8b45 2abe
00000020: f26d 5c3d e20b 28bd 4c08 aebd da44 423e
00000030: c719 53be c9ee 8dbd e1be 4bbe 57d8 16be
00000040: 9d5a 22bc 373c 7fbe fcbf c7bc 1e4d 16be

actorMLP.2.bias f4 [20]
0.5040239 -0.1200888 0.14680105 0.27357703 0.042322267 -0.17489643 0.3881563 0.016980456
0.19870624 -0.053356368 0.12453466 0.2278738 0.14426287 -0.03561439 0.12671946 0.018754868
0.2453721 0.38068622 0.22097443 0.212691
00000000: b607 013f 1ef1 f5bd 0453 163e 4a12 8c3e
00000010: 1d5a 2d3d 0d18 33be 6cbc c63e 991a 8b3c
00000020: a679 4b3e 358c 5abd 070c ff3d c057 693e
00000030: a5b9 133e 65e0 11bd bfc2 013e cfa3 993c
00000040: d342 7b3e 4ee9 c23e 1f47 623e abcb 593e

actorMLP.2.weight f4 [20, 10]
0.34630516 0.14199296 0.14732505 -0.046843942 0.089586206 0.17735095 -0.22820434 -0.014681475
0.17168477 -0.12965816 0.0106205335 -0.2468188 -0.06430581 -0.062523946 0.05509052 0.20908053
0.054566313 0.19742708 -0.095589906 0.07669069 -0.11662096 0.26612204 -0.057194974 -0.05986699
-0.01862322 -0.14299478 0.022805957 0.11438728 0.22608383 -0.09362351 0.038534157 -0.017115308
-0.049493235 -0.009768031 -0.050022613 -0.14003016 0.022124054 0.07413989 0.23693508 0.019880539
0.41877505 0.116312206 0.1538117 0.24795862 0.08770168 -0.026207736 0.0048901383 -0.07125915
0.0015062211 -0.006166535 -0.26229447 -0.07665785 0.15133971 -0.05047141 -0.10842566 0.18772067
0.074684486 0.19422819 -0.040969785 -0.12576981 -0.093404144 0.0770138 0.0030874524 0.13020448
-0.14031377 -0.029355237 0.031973533 -0.024540989 0.13477866 0.06682791 0.0015541568 -0.06443195
-0.017234039 -0.1346968 -0.20499879 0.017931195 -0.20907944 -0.028600782 -0.008147268 0.088812955
-0.20978297 -0.059523687 -0.031468462 -0.10760401 0.018604368 -0.19228578 -0.009221201 0.0088580195
0.023489926 -0.06822544 -0.0819459 -0.142179 -0.025998916 -0.058991592 0.039898537 -0.06447716
-0.041409973 0.24652547 -0.11284008 -0.056615714 -0.08868918 -0.043259725 0.050644763 -0.16851813
-0.02646232 -0.14623801 -0.06382898 -0.011100304 0.035898555 0.030039169 -0.05011503 -0.023234315
0.031922266 0.040823102 -0.094472 -0.02595885 -0.10487114 -0.09559153 -0.10920334 0.12211434
-0.025458299 0.18139614 -0.2489312 -0.07135881 -0.06700086 -0.13447127 -0.084210046 0.10955735
0.24710992 0.21536471 0.12682766 -0.07927956 -0.2009393 0.12676358 -0.100516185 -0.12003856
0.1288687 0.20224856 -0.16651256 0.04658226 0.23657995 -0.3755125 0.027172094 -0.2525848
0.16030699 -0.09551402 -0.09181574 0.09242488 -0.18286714 -0.05869649 -0.08746989 -0.15265232
0.06887905 -0.04676975 0.10946058 0.030812804 -0.13612671 0.07586926 -0.41060343 -0.1540884
-0.08580506 0.19355735 0.032827068 0.17042758 0.0678495 -0.06315933 -0.06541841 -0.18080962
0.07926652 0.18752292 0.102432765 -0.05076275 -0.17182676 0.16038175 -0.08071493 -0.009352073
0.009580676 0.033366356 0.08532344 0.26469845 -0.13714877 0.13436714 -0.081619635 -0.14590251
0.123079225 -0.21841186 -0.07195247 0.12869458 0.22272062 -0.039147742 -0.34524572 -0.15977104
-0.08271455 -0.116194606 -0.08294107 -0.18080969 -0.111407 0.043358505 0.1640737 -0.21777904
00000000: e94e b13e 9a66 113e 61dc 163e 6fdf 3fbd
00000010: f978 b73d 7d9b 353e 66ae 69be 928a 70bc
00000020: 22ce 2f3e 1cc5 04be bf01 2e3c 11be 7cbe
00000030: c4b2 83bd 8e0c 80bd 99a6 613d 3519 563e
00000040: ed80 5f3d 532a 4a3e a4c4 c3bd 0210 9d3d
00000050: f8d6 eebd 2641 883e 4745 6abd 1737 75bd
00000060: b98f 98bc 396d 12be 8fd3 ba3c e143 ea3d
00000070: 8582 673e afbd bfbd fed5 1d3d 6735 8cbc
00000080: 6bb9 4abd 170a 20bc 83e4 4cbd 1164 0fbe
00000090: 813d b53c a8d6 973d 1c9f 723e 83dc a23c
000000a0: af69 d63e 1835 ee3d d080 1d3e dde8 7d3e
000000b0: f09c b33d 9bb1 d6bc 743d a03b 51f0 91bd
000000c0: 656c c53a a510 cabb 764b 86be cafe 9cbd
000000d0: ccf8 1a3e 1cbb 4ebd 460e debd d939 403e
000000e0: 2ef4 983d c1e3 463e efcf 27bd cdc9 00be
000000f0: ac4a bfbd 69b9 9d3d db56 4a3b 5354 053e
00000100: 6aae 0fbe 657a f0bc aef6 023d 2f0a c9bc
00000110: 6b03 0a3e 12dd 883d d9b4 cb3a e6f4 83bd
00000120: 662e 8dbc f5ed 09be 34eb 51be 71e4 923c
00000130: ec18 56be 304c eabc 1e7c 05bc 91e3 b53d
00000140: 59d1 56be 1ccf 73bd 13e5 00bd 7e5f dcbd
00000150: 3068 983c 90e6 44be 8514 17bc 3a21 113c
00000160: f26d c03c c8b9 8bbd 41d3 a7bd 5f97 11be
00000170: aefb d4bc 2ba1 71bd a66c 233d 9a0c 84bd
00000180: 819d 29bd 2c71 7c3e b318 e7bd e1e5 67bd
00000190: aca2 b5bd 1c31 31bd e270 4f3d 0490 2cbe
000001a0: 82c7 d8bc 6bbf 15be c5b8 82bd 0dde 35bc
000001b0: 5d0a 133d b414 f63c 6b45 4dbd e455 bebc
000001c0: ecc0 023d 2036 273d 897a c1bd a7a7 d4bc
000001d0: aec6 d6bd 7ec5 c3bd 00a6 dfbd 1517 fa3d
000001e0: ec8d d0bc e9bf 393e d2e7 7ebe 9124 92bd
000001f0: bf37 89bd d6b2 09be 5176 acbd 9b5f e03d
00000200: 620a 7d3e 9188 5c3e 1cdf 013e 525d a2bd
00000210: 08c3 4dbe 50ce 013e 6edb cdbd c7d6 f5bd
00000220: 28f6 033e 3f1a 4f3e 4582 2abe 0acd 3e3d
00000230: 0442 723e 2d43 c0be 0398 de3c cb52 81be
00000240: 8427 243e db9c c3bd e409 bcbd 4149 bd3d
00000250: 8641 3bbe bb6b 70bd 6a23 b3bd e450 1cbe
00000260: 7610 8d3d a391 3fbd de2c e03d 226b fc3c
00000270: cd64 0bbe 5861 9b3d 9d3a d2be 59c9 1dbe
00000280: 90ba afbd e633 463e ad75 063d 9184 2e3e
00000290: aef4 8a3d ae59 81bd 16fa 85bd 2826 39be
000002a0: 7c56 a23d 0206 403e 45c8 d13d 9aec 4fbd
000002b0: 5bf3 2fbe 1d3b 243e df4d a5bd 7039 19bc
000002c0: 45f8 1c3c 29ab 083d 0ebe ae3d 8e86 873e
000002d0: ba70 0cbe 8a97 093e 3228 a7bd 7867 15be
000002e0: f610 fc3d 5ca7 5fbe d15b 93bd 83c8 033e
000002f0: e010 643e 6259 20bd 0cc4 b0be 059b 23be
00000300: 3f66 a9bd 70f7 edbd 02dd a9bd 2d26 39be
00000310: 5a29 e4bd b098 313d f002 283e 7801 5fbe

actorMLP.4.bias f4 [10]
0.29771376 0.07347599 0.06374983 0.20170641 0.12562902 0.10136275 0.43632284 0.21514295
0.3516996 0.13929346
00000000: f06d 983e 947a 963d 458f 823d 208c 4e3e
00000010: e5a4 003e 4697 cf3d b565 df3e 6f4e 5c3e
00000020: f811 b43e f2a2 0e3e

actorMLP.4.weight f4 [10, 20]
0.09069012 -0.14532569 0.072542265 0.07521975 -0.14575177 -0.19055057 -0.1342021 -0.004800716
-0.06364644 0.012408846 0.13244994 0.09661649 -0.05933647 -0.19419827 0.15240757 0.014714586
0.15076801 0.11374994 0.0944193 0.21400306 -0.018572183 -0.14178821 0.011101917 -0.0406117
-0.26274812 0.16084974 -0.1899298 0.06357701 -0.19699287 0.0012847915 -0.023013523 -0.06007861
-0.17485607 -0.17140706 -0.13928384 -0.007827247 -0.16429913 0.026698655 0.15885177 -0.10462953
-0.3633229 -0.05744076 0.0402788 -0.056124795 -0.06873664 0.05562525 -0.083547935 0.19404107
-0.20639908 -0.10044263 -0.05141886 -0.05530383 -0.03439471 0.009599973 -0.11114382 -0.07885189
-0.10371867 -0.1277328 -0.04781399 -0.040520478 0.34998775 -0.06704885 0.08833479 0.086305745
0.22313926 -0.11567268 0.30315167 0.13227928 -0.025926922 -0.037240963 0.13362662 0.12218023
0.22825392 0.006273934 0.19770463 -0.044859134 0.24548285 0.12550871 -0.0021629797 -0.24303913
-0.07075023 0.029897394 -0.18251722 -0.19526918 -0.06455825 -0.07432901 -0.051799998 0.093848996
8.1249374e-05 -0.07196899 0.036899753 -0.15245968 0.033316553 -0.15162192 -0.09535187 -0.07084534
0.10720818 -0.030060451 -0.31547228 0.080186985 -0.112163745 -0.118604094 -0.080039226 -0.14891346
-0.10169689 -0.04400952 0.10487406 -0.15377153 -0.08097579 0.15452155 0.0016878105 0.14331836
0.03593142 -0.060323212 0.08247842 0.076357104 -0.07009858 -0.011855925 -0.1007447 0.019636866
0.10307902 -0.046530824 0.23018903 0.06348698 -0.33115312 -0.15325907 0.15062973 -0.085947275
0.3029146 -0.032636255 -0.13074173 0.13608274 0.1576603 -0.007915965 -0.12456545 0.005956152
-0.021510454 0.05784542 0.14825483 0.24998175 0.22080936 -0.12568891 -0.17734191 -0.10172578
0.109848306 -0.015099374 -0.16326725 0.058836773 0.06702899 -0.103394136 0.070810035 -0.047741365
-0.13695988 0.094244845 0.15180223 -0.24124195 0.22272353 0.006729869 -0.24129647 -0.06881656
0.35992184 -0.021027433 0.12211765 0.012123019 0.16765822 -0.07876593 0.2240369 -0.082600854
0.10466264 -0.060236644 0.028077463 0.016519204 0.14596586 -0.095740624 0.06749594 0.10367288
0.07811255 0.13551454 0.076751254 -0.24531281 -0.04352108 -0.034588363 0.21389654 -0.02482161
-0.0011735369 -0.0037311995 0.059228342 0.1529703 -0.076471366 -0.043201305 -0.18037409 0.16196463
-0.2052411 -0.08630886 -0.038739312 -0.21635775 -0.13808176 0.06816012 -0.10841787 0.15265186
00000000: bebb b93d 42d0 14be 0a91 943d d00c 9a3d
00000010: f43f 15be b01f 43be 466c 09be 534f 9dbb
00000020: 1159 82bd 794e 4b3c f5a0 073e dede c53d
00000030: cc0a 73bd e9db 46be bb10 1c3e 7215 713c
00000040: ee62 1a3e bbf5 e83d e85e c13d 9e23 5b3e
00000050: b124 98bc ee30 11be d1e4 353c 7458 26bd
00000060: ec86 86be cbb5 243e f57c 42be aa34 823d
00000070: 80b8 49be 7366 a83a db86 bcbc fd14 76bd
00000080: 780d 33be 5585 2fbe 6ca0 0ebe da3d 00bc
00000090: 083e 28be 23b7 da3c 0aaa 223e 0248 d6bd
000000a0: 7605 babe 0147 6bbd 62fb 243d 1de3 65bd
000000b0: ccc5 8cbd 4dd7 633d 2e1b abbd b4b2 463e
000000c0: 485a 53be deb4 cdbd 959c 52bd 4586 62bd
000000d0: 78e1 0cbd 3549 1d3c 5f9f e3bd 1a7d a1bd
000000e0: 746a d4bd 63cc 02be 9ad8 43bd cdf8 25bd
000000f0: 9831 b33e e850 89bd dfe8 b43d 11c1 b03d
00000100: 9e7e 643e cce5 ecbd b236 9b3e 3874 073e
00000110: b264 d4bc fb89 18bd 6bd5 083e a139 fa3d
00000120: 65bb 693e 9395 cd3b 1573 4a3e 36be 37bd
00000130: db5f 7b3e 5b85 003e c7c0 0dbb 40df 78be
00000140: 7fe5 90bd 61eb f43c cbe5 3abe a5f4 47be
00000150: 1e37 84bd cf39 98bd 3c2c 54bd e733 c03d
00000160: 6d64 aa38 7a64 93bd 3224 173d 641e 1cbe
00000170: f076 083d c742 1bbe d747 c3bd 5d17 91bd
00000180: f68f db3d 5641 f6bc 9585 a1be 1339 a43d
00000190: 1bb6 e5bd b4e6 f2bd 9beb a3bd c57c 18be
000001a0: 7646 d0bd 5443 34bd 36c8 d63d 4976 1dbe
000001b0: a3d6 a5bd e63a 1e3e 8639 dd3a 0cc2 123e
000001c0: d32c 133d 7915 77bd 72ea a83d 1d61 9c3d
000001d0: d88f 8fbd 5b3f 42bc 3d53 cebd 7edd a03c
000001e0: 181b d33d 1b97 3ebd acb6 6b3e 7605 823d
000001f0: e78c a9be f2ef 1cbe ae3e 1a3e 2005 b0bd
00000200: 9f17 9b3e 98ad 05bd 29e1 05be 4659 0b3e
00000210: b471 213e f7b1 01bc 2c1c ffbd d32b c33b
00000220: b136 b0bc 52ef 6c3d 1dd0 173e 37fb 7f3e
00000230: d91b 623e 98b4 00be 1e99 35be 9b55 d0bd
00000240: 26f8 e03d 5d63 77bc 882f 27be d4fe 703d
00000250: 7f46 893d 4ec0 d3bd da04 913d 738c 43bd
00000260: 363f 0cbe 7103 c13d 0b72 1b3e 2108 77be
00000270: a311 643e 3c86 dc3b 6c16 77be b2ef 8cbd
00000280: ad47 b83e b941 acbc d218 fa3d a19f 463c
00000290: 99ae 2b3e 0850 a1bd ee69 653e a32a a9bd
000002a0: 5e59 d63d b3ba 76bd b502 e63c 4853 873c
000002b0: 1378 153e a913 c4bd 503b 8a3d 7252 d43d
000002c0: 79f9 9f3d 53c4 0a3e c32f 9d3d 4833 7bbe
000002d0: 2943 32bd 87ac 0dbd b207 5b3e b056 cbbc
000002e0: 5dd1 99ba 2487 74bb 6b99 723d 3fa4 1c3e
000002f0: 059d 9cbd daf3 30bd fcb3 38be 0eda 253e
00000300: b92a 52be b3c2 b0bd 1dad 1ebd e38c 5dbe
00000310: 4e65 0dbe 8897 8b3d 300a debd c550 1c3e

actorMLP.6.bias f4 [2]
-0.0042184754 0.63754755
00000000: 233b 8abb 5136 233f

actorMLP.6.weight f4 [2, 10]
0.01087883 -0.083739 0.07890037 -0.11412399 0.024249246 0.005786843 -0.28915143 -0.16017981
0.09866644 -0.030288532 -0.045714404 0.15453997 0.14149678 -0.2824911 0.13961624 -0.2626057
0.19291326 -0.118637614 -0.17044042 0.009475453
00000000: 1f3d 323c 5a7f abbd 8496 a13d d7b9 e9bd
00000010: 5ba6 c63c 8f9f bd3b a80b 94be 2d06 24be
00000020: a111 ca3d a81f f8bc 073f 3bbd ba3f 1e3e
00000030: 88e4 103e aca2 90be 8ff7 0e3e 4174 86be
00000040: 0e8b 453e 47f8 f2bd ef87 2ebe ee3e 1b3c

actorOut.0.bias f4 [2]
0.12730666 0.092866495
00000000: ad5c 023e ca30 be3d

actorOut.0.weight f4 [2, 4]
-0.14256243 0.11708043 -0.06561983 0.56354463 -0.10987222 0.35536307 -0.011458108 -0.077669315
00000000: e3fb 11be ddc7 ef3d b063 86bd 7644 103f
00000010: b004 e1bd 26f2 b53e caba 3bbc 1711 9fbd

actor_cnn.0.bias f4 [32]
-0.037082754 -0.029396644 -0.08290759 -0.070456974 -0.0744532 -0.08174028 -0.040103804 -0.028714554
-0.074436374 -0.04699945 -0.012342396 -0.019102111 -0.014985092 -0.031607587 -0.022855645 -0.00095008034
-0.06408088 -0.024048943 0.013823575 -0.04595291 -0.11355011 -0.031860594 -0.10001403 -0.08575434
-0.08584405 -0.09089605 -0.092256956 -0.07219029 -0.066254534 -0.0270223 -0.12090111 -0.058860205
00000000: 16e4 17bd 3bd1 f0bc 74cb a9bd bf4b 90bd
00000010: eb7a 98bd 7367 a7bd e343 24bd c93a ebbc
00000020: 1972 98bd 7f82 40bd c337 4abc 087c 9cbc
00000030: 0884 75bc f576 01bd c33b bbbc d00e 79ba
00000040: d63c 83bd 4a02 c5bc 477c 623c 1e39 3cbd
00000050: f68c e8bd 4180 02bd 28d4 ccbd f99f afbd
00000060: 01cf afbd b527 babd 37f1 bcbd 81d8 93bd
00000070: 75b0 87bd df5d ddbc 009b f7bd 6617 71bd

actor_cnn.0.weight f4 [32, 3, 8, 8]
-0.01849141 -0.011651234 0.08198261 0.06650918 0.09010388 0.104302965 0.018320968 0.08327298
0.0308033 0.043591592 0.08976969 0.054735705 0.040425025 0.007966118 0.0056015337 -0.044134304
0.10879624 0.14094998 0.074466236 0.18438445 0.17879716 0.16030702 0.081619464 0.050231192
0.120987825 0.10984558 0.116278425 0.09952913 0.116775446 0.16265011 0.027490266 0.033976655
-0.16160789 -0.24321489 -0.19389345 -0.10717973 -0.09736954 -0.1483505 -0.1439729 -0.19000858
0.051609393 0.07465988 0.06253047 -0.018313551 -0.018258812 0.055430345 0.038053494 0.08291268
-0.046753336 0.034572892 0.029188877 -0.08672913 0.05104113 0.030300627 -0.03594455 -0.0030426406
-0.06988664 -0.27568597 -0.23575918 -0.28626192 -0.22112246 -0.32794183 -0.29856944 -0.10267712
-0.060642976 -0.03826579 -0.021924833 0.07227604 0.08748861 0.122177005 0.066972435 0.024949456
0.033572555 0.06959455 0.078224696 0.037498336 -0.0067139133 -0.09621626 -0.041025665 -0.0755537
0.08042841 0.06798714 0.108272456 0.16843912 0.17191726 0.12737873 0.037862357 -0.028471848
0.023663668 0.10387023 0.09400836 0.11052975 0.120426014 0.07216821 0.05035022 0.017382191
-0.16197284 -0.25717765 -0.22963148 -0.045699112 -0.10882018 -0.18876919 -0.14771582 -0.15387969
-0.008472956 -0.03982989 0.038033165 -0.008331303 -0.008528079 -0.08790064 -0.0123497965 0.013592666
-0.020817842 -0.03573027 -0.11554395 -0.09702298 0.03947933 -0.035855394 -0.018409781 -0.049282752
-0.08305833 -0.1906358 -0.23951188 -0.20942213 -0.29737994 -0.2903472 -0.21703285 -0.20239106
-0.017361963 -0.039652772 0.060687292 0.069684096 0.021952067 0.09599774 0.054988064 0.043610796
0.0025613687 0.018008536 -0.012596608 0.02456004 -0.005813457 -0.025804136 -0.035119127 -0.017318645
0.08435291 0.048653785 0.088273235 0.07944957 0.060774725 0.02502448 0.05922432 0.008491498
0.0067356587 0.028897695 0.06997651 0.028876193 0.05592178 0.021465406 0.017795539 0.024066817
-0.10076555 -0.10931507 -0.06357357 -0.055494465 -0.040682897 -0.021782622 -0.0073386393 -0.06043317
-0.023904651 0.0349625 -0.004049905 0.023205895 -0.0085033905 0.028967746 -0.009140161 0.098930545
-0.0064639184 -0.01825646 -0.060994636 -0.0022265622 -0.0046605654 -0.000332242 0.007273115 -0.030088764
-0.057474483 -0.14523514 -0.08632848 -0.04173828 -0.097963296 -0.14840937 -0.09742311 -0.09421347
-0.095731266 -0.08726604 -0.07737914 -0.02480088 -0.05987081 -0.04939686 -0.012555891 0.0113775935
-0.09583728 -0.08018266 -0.061491635 -0.05863573 -0.018410906 -0.07258843 0.0054271338 0.0255711
-0.16354136 -0.09588159 -0.110275656 -0.11551651 -0.122987255 -0.008715776 -0.055598818 0.021910505
-0.11844961 -0.17372441 -0.2555742 -0.07292776 -0.069613926 -0.03911348 -0.005822375 -0.004149828
0.073117055 0.09288143 0.15807268 0.07235769 0.1392044 0.14671834 0.0985636 0.094964415
0.10259249 0.09358722 0.07059829 0.14443348 0.16096349 0.14341104 0.12497232 0.16052137
0.061146114 0.047535066 0.13731128 0.14738515 0.08552902 0.19051047 0.1853642 0.1799915
0.10868423 0.2148153 0.16411711 0.18227422 0.18303381 0.245396 0.26905826 0.24009381
00000000: 4c7b 97bc d1e4 3ebc 80e6 a73d f735 883d
00000010: 6288 b83d cb9c d53d db15 963c 068b aa3d
00000020: 3457 fc3c 198d 323d 2cd9 b73d 8c32 603d
00000030: b694 253d 5284 023c 128d b73b 2cc6 34bd
00000040: 90d0 de3d 3155 103e c181 983d 47cf 3c3e
00000050: 9a16 373e 8627 243e 1b28 a73d 39bf 4d3d
00000060: 77c8 f73d b8f6 e03d 6223 ee3d eed5 cb3d
00000070: f727 ef3d c08d 263e 4433 e13c 1b2b 0b3d
00000080: 8a7c 25be 530d 79be 018c 46be 0c81 dbbd
00000090: ae69 c7bd 32e9 17be a26d 13be 9c91 42be
000000a0: 5f64 533d 47e7 983d fa0f 803d 4d06 96bc
000000b0: 8193 95bc ee0a 633d fbdd 1b3d 20ce a93d
000000c0: 6d80 3fbd 4e9c 0d3d 831d ef3c 0b9f b1bd
000000d0: 8110 513d 0539 f83c 983a 13bd 0a67 47bb
000000e0: ba20 8fbd b626 8dbe db6a 71be ec90 92be
000000f0: ed6d 62be fee7 a7be 18de 98be 6248 d2bd
00000100: c564 78bd 97bc 1cbd b59b b3bc 7605 943d
00000110: 3a2d b33d f037 fa3d d828 893d cd62 cc3c
00000120: 6083 093d 9687 8e3d 4534 a03d db97 193d
00000130: 6300 dcbb 080d c5bd 870a 28bd e6bb 9abd
00000140: a6b7 a43d d73c 8b3d f3bd dd3d 4e7b 2c3e
00000150: 140b 303e 926f 023e 8f15 1b3d cb3d e9bc
00000160: 4fda c13c eab9 d43d 7487 c03d 6c5d e23d
00000170: eaa1 f63d edcc 933d 083c 4e3d 1965 8e3c
00000180: 35dc 25be caac 83be 8424 6bbe fe2e 3bbd
00000190: 1ddd debd b64c 41be d142 17be a392 1dbe
000001a0: 27d2 0abc ab24 23bd aac8 1b3d 0480 08bc
000001b0: 5bb9 0bbc 4005 b4bd cd56 4abc c6b3 5e3c
000001c0: 2e8a aabc e759 12bd 4ea2 ecbd fcb3 c6bd
000001d0: 14b5 213d 1bdd 12bd 1cd0 96bc b6dc 49bd
000001e0: 7c1a aabd 0836 43be 9a42 75be c172 56be
000001f0: 2f42 98be 63a8 94be dc3d 5ebe 9a3f 4fbe
00000200: ad3a 8ebc f26a 22bd 3d93 783d 89b6 8e3d
00000210: d2d4 b33c 779a c43d 2a3b 613d 3ca1 323d
00000220: a3dc 273b a386 933c 0162 4ebc 2332 c93c
00000230: d07e bebb 3263 d3bc 13d9 0fbd d5df 8dbc
00000240: 38c1 ac3d 3149 473d 99c8 b43d 75b6 a23d
00000250: ebee 783d 2300 cd3c 3395 723d ed1f 0b3c
00000260: cdb6 dc3b dcba ec3c d84f 8f3d c48d ec3c
00000270: 3d0e 653d 38d8 af3c f3c7 913c c627 c53c
00000280: 2b5e cebd 94e0 dfbd dc32 82bd 2a4e 63bd
00000290: 1ca3 26bd 7871 b2bc f878 f0bb c688 77bd
000002a0: b0d3 c3bc d734 0f3d 11b5 84bb 4a1a be3c
000002b0: ce51 0bbc c44d ed3c 9dc0 15bc 199c ca3d
000002c0: 47cf d3bb 928e 95bc 83d5 79bd 84eb 11bb
000002d0: a8b7 98bb c430 aeb9 5053 ee3b b67c f6bc
000002e0: 5d6a 6bbd 85b8 14be fccc b0bd c2f5 2abd
000002f0: fba0 c8bd a0f8 17be c485 c7bd fef2 c0bd
00000300: c10e c4bd 8ab8 b2bd f478 9ebd 372b cbbc
00000310: 183b 75bd 5d54 4abd 39b7 4dbc 1669 3a3c
00000320: 5646 c4bd ce36 a4bd a7de 7bbd 052c 70bd
00000330: 78d2 96bc 3ea9 94bd 19d6 b13b 7c7a d13c
00000340: 6377 27be 915d c4bd 34d8 e1bd ec93 ecbd
00000350: bee0 fbbd 9dcc 0ebc 96bb 63bd a97d b33c
00000360: b695 f2bd d0e4 31be 9fda 82be 265b 95bd
00000370: bf91 8ebd 7535 20bd 9fc9 bebb 48fb 87bb
00000380: 65be 953d 9f38 be3d cedd 213e 4530 943d
00000390: 998b 0e3e 553d 163e b6db c93d b47c c23d
000003a0: 031c d23d a8aa bf3d d695 903d 5fe6 133e
000003b0: 9dd3 243e 58da 123e 7df1 ff3d b75f 243e
000003c0: 5974 7a3d 21b4 423d 549b 0c3e 22ec 163e
000003d0: d729 af3d 2d15 433e 1dd0 3d3e b14f 383e
000003e0: d695 de3d 8bf8 5b3e 510e 283e 18a6 3a3e
000003f0: 376d 3b3e 1749 7b3e 01c2 893e 27db 753e

actor_cnn.2.bias f4 [64]
-0.09386484 -0.03603031 0.022650974 -0.027781665 -0.044441428 -0.030013682 -0.0033792127 -0.052952137
-0.044473298 -0.036473047 -0.04393334 -0.067889795 -0.037970454 -0.023942491 -0.00645409 0.052392762
-0.08396823 0.0076150596 -0.029239282 -0.047447935 -0.0625834 -0.057919804 -0.09137795 -0.05850231
0.0021906556 -0.01894689 0.036951825 -0.08646841 0.02082504 0.07003752 -0.03175405 -0.008212741
-0.01727122 -0.030026903 -0.04209624 -0.00678286 -0.011656751 -0.07799833 -0.015314055 0.042791177
-0.023256734 -0.05565987 -0.06276414 -0.085172154 -0.100958735 -0.033556204 -0.077346146 -0.03736259
-0.0134740835 0.0018257092 -0.051738035 0.015594328 -0.023352815 -0.05857303 -0.06281961 -0.056798138
0.046255037 -0.047316156 -0.026687626 -0.015706096 -0.08116598 -0.008565039 0.003747992 -0.03950072
00000000: 363c c0bd 8594 13bd 898e b93c 6096 e3bc
00000010: 3708 36bd 41df f5bc c875 5dbb 57e4 58bd
00000020: a229 36bd c364 15bd 72f3 33bd ce09 8bbd
00000030: e886 1bbd 0b23 c4bc d57c d3bb cb99 563d
00000040: 89f7 abbd c087 f93b 3887 efbc c458 42bd
00000050: ba2b 80bd 513d 6dbd 5d24 bbbd 1ea0 6fbd
00000060: 1a91 0f3b 8236 9bbc cc5a 173d 5a16 b1bd
00000070: 4699 aa3c d56f 8f3d 8910 02bd bc8e 06bc
00000080: 607c 8dbc fbfa f5bc 1b6d 2cbd c142 debb
00000090: f5fb 3ebc 97bd 9fbd cde7 7abc cd45 2f3d
000000a0: e884 bebc 9bfb 63bd 7c8a 80bd bd6e aebd
000000b0: 74c3 cebd 3b72 09bd a867 9ebd 8409 19bd
000000c0: 67c2 5cbc a34c ef3a 43eb 53bd 5a7f 7f3c
000000d0: 674e bfbc 46ea 6fbd 91a7 80bd 2aa5 68bd
000000e0: ec75 3d3d 96ce 41bd 02a0 dabc 12aa 80bc
000000f0: 593a a6bd 6154 0cbc dfa0 753b 82cb 21bd

actor_cnn.2.weight f4 [64, 32, 4, 4]
-0.2159178 -0.040796123 -0.040237244 0.09390123 -0.022626543 -0.018912574 -0.081678405 -0.029875733
-0.04472422 -0.03188435 -0.026392529 -0.3081413 -0.17604767 -0.0006697641 -0.083546005 -0.022043305
0.07302597 0.11541806 0.20959353 0.0034272906 0.015286495 0.0069916733 -0.10519638 -0.16222952
-0.0397892 -0.020377783 0.024873978 0.12424413 0.20812845 0.11203627 0.09189736 0.09878614
0.08266217 -0.11834686 0.046887342 0.14681754 0.0058388705 -0.037993062 -0.058738824 0.067003265
-0.17145349 -0.013001084 -0.22115625 -0.23572154 0.09468782 -0.12338904 0.0075156237 -0.13034724
-0.052759893 -0.055743985 0.08710593 0.09532075 -0.006569863 -0.0013439356 -0.009415854 -0.18337785
0.08030526 -0.13237254 0.083211064 0.10617995 0.07256495 0.00861426 -0.014146093 0.17669499
0.014782235 0.14293355 0.0028148585 0.061816867 -0.07189958 -0.036970045 -0.045129582 0.0059515913
-0.08797189 -0.09014646 -0.11199633 -0.15261123 -0.11882033 -0.12147582 -0.061581403 -0.076411635
0.110429004 0.14823283 0.1043895 0.08152452 0.02019222 0.061247546 0.009686794 0.028774204
0.124918915 0.14981979 0.18840466 0.08144798 0.119225934 0.07269059 0.02858806 0.22873364
0.039672293 0.03508573 0.00048051533 -0.18011476 0.01806083 0.009802034 -0.04091875 -0.017923253
0.1012205 0.043221314 0.083079256 0.12097135 0.21583383 0.3174078 0.037084624 0.02658376
-0.076077804 0.019967165 -0.07424244 -0.11687989 -0.11057848 0.009298842 -0.064148545 -0.046968054
0.15097953 0.021661103 0.043359198 0.091604054 0.11077044 0.10912924 -0.08632253 -0.16003837
-0.010464776 0.10481128 0.10220637 0.04145556 0.045410983 0.043371934 -0.16772553 -0.10893722
-0.074375935 -0.12538424 -0.07318967 0.011799046 0.023801873 0.0065642036 0.043269157 0.032271594
0.025106097 0.015365359 -0.016614325 -0.15789074 -0.032010786 -0.15165694 -0.11235354 -0.13451338
0.03885168 -0.04869937 -0.013950314 -0.0036164091 -0.062543474 0.031910546 -0.048407022 0.038840897
-0.05270171 -0.16465028 -0.06841701 0.10130362 0.050205782 0.05499896 0.07098935 0.05651021
-0.033922497 -0.07111486 -0.067105845 -0.05520182 -0.052812178 0.09772596 0.06756703 -0.0047273356
0.033820737 -0.070444025 -0.11708545 -0.03657706 -0.02143437 -0.09211165 0.057510093 -0.024319058
0.14663555 0.17974131 0.028265959 0.018138308 -0.075968705 -0.029353568 -0.12216255 -0.2950354
0.010740384 -0.0016495417 -0.1099484 0.040713552 0.14558788 -0.027116865 0.056628242 0.017627507
0.23511304 0.15917656 0.046682704 -0.04232144 -0.10381434 -0.008601164 -0.093891524 -0.2074135
-0.0006342794 0.025560843 0.0021795311 -0.13634844 -0.0446015 0.042365704 -0.13898043 -0.06279324
0.058864612 0.028948981 0.02637128 0.061466746 0.02510944 0.116296664 -0.041097913 -0.12733191
0.08657585 0.0018771252 -0.08197554 -0.18670598 0.0065119346 0.033495534 0.0626301 0.07610922
0.06183167 0.21190839 0.085983984 0.11236698 -0.03994115 -0.008704339 -0.107316054 -0.18461387
-0.24726944 -0.15008895 -0.084407926 -0.036564626 0.033757716 -0.024612334 0.05575541 0.0012185449
-0.13454936 -0.0986438 -0.15434164 -0.14475445 -0.13783188 0.0196284 0.028208895 -0.049421452
00000000: 8e19 5dbe d619 27bd cfcf 24bd 4a4f c03d
00000010: 4d5b b9bc 8bee 9abc 0247 a7bd f4bd f4bc
00000020: be30 37bd 2a99 02bd 2535 d8bc b2c4 9dbe
00000030: d745 34be 1c93 2fba 2b1a abbd 2994 b4bc
00000040: a48e 953d 4e60 ec3d b09f 563e 659c 603b
00000050: 3574 7a3c 681a e53b 3371 d7bd 7f1f 26be
00000060: 00fa 22bd 4fef a6bc 83c4 cb3c b573 fe3d
00000070: a01f 553e 4673 e53d af34 bc3d 6350 ca3d
00000080: c94a a93d d75f f2bd f10c 403d 5657 163e
00000090: ff53 bf3b 9d9e 1bbd 1f98 70bd 0239 893d
000000a0: 8191 2fbe 8002 55bc c976 62be fd60 71be
000000b0: b0eb c13d 65b3 fcbd 9f45 f63b bf79 05be
000000c0: c21a 58bd ce53 64bd 9864 b23d 8637 c33d
000000d0: 0148 d7bb ff26 b0ba f444 1abc 67c7 3bbe
000000e0: 1677 a43d ab8c 07be 906a aa3d e074 d93d
000000f0: ef9c 943d d322 0d3c 04c5 67bc 88ef 343e
00000100: 3031 723c 2c5d 123e 7d79 383b af33 7d3d
00000110: 1640 93bd e76d 17bd ccd9 38bd 9105 c33b
00000120: 9b2a b4bd b59e b8bd 555e e5bd 1e46 1cbe
00000130: 1358 f3bd 51c8 f8bd c83c 7cbd b47d 9cbd
00000140: 9a28 e23d 59ca 173e 2aca d53d 54f6 a63d
00000150: 286a a53c b5de 7a3d 5cb5 1e3c e1b7 eb3c
00000160: 7dd5 ff3d 5c6a 193e 27ed 403e 33ce a63d
00000170: ba2c f43d cede 943d 8231 ea3c 2739 6a3e
00000180: 6a7f 223d 0eb6 0f3d aded fb39 0170 38be
00000190: 4ef4 933c b698 203c 6b9a 27bd c9d3 92bc
000001a0: b24c cf3d d508 313d 7525 aa3d d4bf f73d
000001b0: 8b03 5d3e 4683 a23e 0ce6 173d 2fc6 d93c
000001c0: aece 9bbd 2e92 a33c 6c0c 98bd b95e efbd
000001d0: f876 e2bd 2c5a 183c 5060 83bd 9361 40bd
000001e0: 619a 1a3e a072 b13c 6a99 313d e89a bb3d
000001f0: 9ddb e23d 277f df3d dec9 b0bd 19e1 23be
00000200: 7474 2bbc 4ca7 d63d 9351 d13d 4ecd 293d
00000210: de00 3a3d c5a6 313d 3ec0 2bbe 7a1a dfbd
00000220: 6952 98bd ba64 00be 77e4 95bd c950 413c
00000230: 25fc c23c 8818 d73b 003b 313d 382f 043d
00000240: 4dab cd3c fdbe 7b3c c41a 88bc 1cae 21be
00000250: be1d 03bd f54b 1bbe 9d19 e6bd e0bd 09be
00000260: f022 1f3d fe78 47bd dc8f 64bc 4701 6dbb
00000270: cb16 80bd a2b4 023d 7146 46bd a217 1f3d
00000280: c0dd 57bd 159a 28be 381e 8cbd 4678 cf3d
00000290: 94a4 4d3d 9746 613d dd62 913d 4077 673d
000002a0: 51f2 0abd aba4 91bd ca6e 89bd 4e1b 62bd
000002b0: 9551 58bd 8c24 c83d 9560 8a3d c4e7 9abb
000002c0: 9d87 0a3d f544 90bd 7fca efbd d4d1 15bd
000002d0: 2297 afbc 08a5 bcbd b48f 6b3d c338 c7bc
000002e0: a127 163e 1b0e 383e 038e e73c ca96 943c
000002f0: 7b95 9bbd e576 f0bc 5c30 fabd e10e 97be
00000300: 70f8 2f3c 6f35 d8ba a02c e1bd 41c3 263d
00000310: fd14 153e 3024 debc 04f3 673d 9067 903c
00000320: 79c1 703e 2eff 223e 5d36 3f3d 3f59 2dbd
00000330: 9d9c d4bd e6eb 0cbc 334a c0bd 3464 54be
00000340: c545 26ba f964 d13c 77d6 0e3b ed9e 0bbe
00000350: 10b0 36bd a987 2d3d e350 0ebe be99 80bd
00000360: 051c 713d 6a26 ed3c 9508 d83c 8ec4 7b3d
00000370: 50b2 cd3c f22c ee3d 4956 28bd 4c63 02be
00000380: ae4e b13d df09 f63a cbe2 a7bd da2f 3fbe
00000390: 1162 d53b 9d32 093d 3644 803d 27df 9b3d
000003a0: 3543 7d3d 83fe 583e 5f18 b03d a920 e63d
000003b0: 5599 23bd a59c 0ebc 85c8 dbbd 6b0b 3dbe
000003c0: 3334 7dbe ebb0 19be 10de acbd cac4 15bd
000003d0: 8845 0a3d ce9f c9bc c95f 643d 95b7 9f3a
000003e0: 4fc7 09be c305 cabd bc0b 1ebe 833a 14be
000003f0: cd23 0dbe bdcb a03c 5716 e73c 266e 4abd

actor_cnn.4.bias f4 [64]
-0.05622349 -0.07713494 0.03417316 0.054115597 -0.014516224 0.019850088 -0.052756168 -0.009982433
-0.033303533 -0.0034306666 -0.03927003 -0.04947807 0.0069414107 -0.040651616 -0.058927707 -0.016620655
-0.039625496 -0.025175182 -0.07432921 -0.04576716 -0.0883851 -0.1144336 0.017957808 -0.095559515
-0.05897551 -0.06581415 -0.08603975 -0.019931424 -0.07732922 -0.053441767 -0.037453886 -0.030894794
-0.06873732 -0.10821735 -0.02389659 -0.04417901 -0.041153844 -0.066433705 -0.08441632 -0.039597455
0.0006745109 -0.13625054 -0.031049887 -0.023807047 0.007525076 -0.100238696 -0.048307143 -0.020418918
-0.10412781 -0.061630864 -0.036142796 -0.040863056 -0.014571454 -0.024097223 -0.08279225 -0.047903635
0.025750607 -0.061943475 -0.046455216 -0.039432865 -0.05721356 -0.04669068 -0.011687299 -0.11282145
00000000: 9a4a 66bd ecf8 9dbd 28f9 0b3d 51a8 5d3d
00000010: 75d5 6dbc a79c a23c da16 58bd 5c8d 23bc
00000020: 4969 08bd 09d5 60bb 9cd9 20bd 84a9 4abd
00000030: c674 e33b 4f82 26bd 2e5e 71bd 0a28 88bc
00000040: 584e 22bd 2f3c cebc ea39 98bd 5876 3bbd
00000050: 3f03 b5bd 2a5c eabd 411c 933c b5b4 c3bd
00000060: 4e90 71bd 92c9 86bd 9c35 b0bd 3a47 a3bc
00000070: c85e 9ebd c1e5 5abd 3f69 19bd 1417 fdbc
00000080: 27c6 8cbd 0fa1 ddbd c8c2 c3bc 0df5 34bd
00000090: ef90 28bd 650e 88bd 77e2 acbd f130 22bd
000000a0: a9d1 303a 4385 0bbe 555c febc ff06 c3bc
000000b0: ea94 f63b f249 cdbd b6dd 45bd 9345 a7bc
000000c0: f640 d5bd a570 7cbd 780a 14bd 0560 27bd
000000d0: 1cbd 6ebc 8a67 c5bc fc8e a9bd 9a36 44bd
000000e0: f0f2 d23c 71b8 7dbd d347 3ebd 5b84 21bd
000000f0: c458 6abd ba3e 3fbd 167c 3fbc ef0e e7bd

actor_cnn.4.weight f4 [64, 64, 3, 3]
-0.09207535 -0.115170404 -0.10656999 -0.12499821 -0.016326128 -0.0693023 0.02008363 -0.08007808
0.058678612 -0.09538591 -0.1264315 -0.051844183 -0.040448505 -0.013068885 -0.097518936 0.098538764
-0.049041882 -0.08725783 0.0648179 0.011988302 -0.037021965 -0.025901325 -0.032518473 -0.017102148
-0.029975986 -0.07718097 -0.032652553 0.055436295 0.018086556 -0.025192088 0.022771986 0.041791223
-0.0071946383 0.023335746 0.008298731 -0.037084106 -0.08157646 0.15332685 0.056357082 -0.08508977
-0.051697195 -0.09230488 0.052754473 -0.089567125 0.04815926 -0.06868184 -0.022178568 -0.07833274
0.016973991 0.07166204 -0.08385578 0.06367446 -0.033208307 -0.055831023 -0.060435567 -0.100571595
-0.106682606 0.081316054 0.0072132964 0.04968138 -0.0042129243 0.08493175 -0.002384028 -0.045732662
-0.026895113 -0.0582757 -0.13315137 0.027635502 -0.01912069 -0.10892924 -0.09439056 -0.022754163
-0.011305539 -0.04719234 -0.031259112 0.048342813 0.013685362 0.020038301 -0.049263284 -0.028019102
0.0654159 0.059329752 -0.06592389 -0.14126423 0.0058180564 -0.101117305 -0.06513732 0.04932241
-0.014527618 0.029479088 0.08158958 -0.034548633 -0.007814515 0.002306194 0.052036755 -0.044659488
0.037778173 0.0860192 0.03229941 0.11324756 0.022356218 -0.04337326 -4.0669733e-05 -0.013464476
-0.0136112785 -0.026491717 -0.024063943 0.03127468 -0.024542624 0.02024936 0.028197313 -0.002806727
-0.062686145 -0.0032481498 -0.14343347 -0.04798368 -0.013888162 -0.045663808 -0.011604396 -0.033801075
-0.04617836 -0.02640203 -0.01731261 -0.08948026 -0.03761278 0.034882884 0.043279562 0.056439757
0.017094113 -0.08005908 -0.1464729 -0.17338458 -0.112487555 -0.10368913 -0.006680526 -0.0092599895
-0.0523445 0.0336007 -0.08689602 -0.028854886 -0.07289329 -0.07044768 -0.05668312 -0.057219665
0.017064473 0.16151817 0.06308939 -0.046350893 0.1196544 0.10053956 -0.16769198 0.05832417
0.08016678 -0.1535146 -0.11898744 -0.16540898 -0.04730102 -0.057592433 -0.0067652347 0.12258449
0.15038659 0.04670342 0.064469256 0.015472338 0.021785734 -0.010780272 -0.13667072 -0.02522219
-0.0065615196 0.006055026 0.008410943 -0.061932687 -0.07782194 -0.03052593 -0.13653024 0.03973733
-0.087991245 -0.08826341 0.0010015462 -0.018363744 -0.13959862 -0.004888666 0.039100993 -0.10856039
-0.07812295 -0.05545811 0.04994357 -0.022623733 -0.012523986 -0.03588488 -0.028030535 -0.078441724
0.005543636 -0.05701233 -0.12245657 -0.056232244 -0.047113124 -0.07521198 0.043590244 0.032683644
0.07555145 -0.0035828757 -0.02768477 0.077975884 -0.07079137 -0.0522433 -0.059673686 -0.01860067
-0.053917855 -0.07247241 0.055928268 -0.041000135 -0.05195994 -0.0939152 -0.0074289166 0.049622297
-0.043786913 -0.082661465 -0.09853477 -0.01962437 -0.12722498 -0.12808996 -0.06497795 -0.045301657
-0.042999614 -0.09372148 -0.027439544 0.15938236 -0.064544745 0.061820995 -0.013813085 0.041571707
0.037875388 0.009087563 -0.04925871 -0.24448478 -0.15066019 -0.13023964 -0.065582566 -0.09230571
-0.024516251 -0.09167946 -0.07019224 -0.1269615 0.032881092 -0.070999585 0.012270709 -0.054874267
-0.031266976 -0.030373136 -0.069797486 -0.07879766 0.060167484 -0.0034407093 -0.015714353 -0.015563751
00000000: 0092 bcbd 76de ebbd 5e41 dabd 10ff ffbd
00000010: 5fbe 85bc 5dee 8dbd 6d86 a43c faff a3bd
00000020: fc58 703d b059 c3bd 4277 01be 915a 54bd
00000030: 55ad 25bd e01e 56bc 02b8 c7bd b1ce c93d
00000040: 24e0 48bd 3cb4 b2bd 3fbf 843d 956a 443c
00000050: 58a4 17bd 042f d4bc 1732 05bd ce19 8cbc
00000060: 3390 f5bc 0e11 9ebd afbe 05bd 2b11 633d
00000070: 422a 943c a35f cebc 518c ba3c 462d 2b3d
00000080: 00c1 ebbb 9b2a bf3c 67f7 073c 81e5 17bd
00000090: 8f11 a7bd b701 1d3e afd6 663d 8c43 aebd
000000a0: 70c0 53bd 570a bdbd 1315 583d f86e b7bd
000000b0: a542 453d 11a9 8cbd d4af b5bc ea6c a0bd
000000c0: 0a0d 8b3c 8cc3 923d 94bc abbd c167 823d
000000d0: 6f05 08bd 12af 64bd 498b 77bd 7bf8 cdbd
000000e0: 697c dabd 0889 a63d 845d ec3b b47e 4b3d
000000f0: 920c 8abb b3f0 ad3d 5a3d 1cbb 2c52 3bbd
00000100: 2453 dcbc 80b2 6ebd d558 08be d963 e23c
00000110: fea2 9cbc 4b16 dfbd d74f c1bd f066 babc
00000120: de3a 39bc c14c 41bd 8e09 00bd 1d03 463d
00000130: 9238 603c 5d27 a43c 4cc8 49bd 5188 e5bc
00000140: c5f8 853d c103 733d 1b03 87bd 92a7 10be
00000150: 65a5 be3b 9716 cfbd b766 85bd 4c06 4a3d
00000160: 3f05 6ebc 217e f13c 7018 a73d de82 0dbd
00000170: 7408 00bc 8423 173b 7e24 553d deec 36bd
00000180: 49bd 1a3d d62a b03d 634c 043d 56ee e73d
00000190: 6324 b73c 29a8 31bd cb94 2ab8 1b9a 5cbc
000001a0: d701 5fbc 2805 d9bc bf21 c5bc e119 003d
000001b0: 9d0d c9bc fce1 a53c 0dfe e63c 11f1 37bb
000001c0: 9861 80bd e9de 54bb 39e0 12be 898a 44bd
000001d0: 2c8b 63bc f909 3bbd 5d20 3ebc ff72 0abd
000001e0: 8525 3dbd 1249 d8bc 2dd3 8dbc 6d41 b7bd
000001f0: dc0f 1abd 5be1 0e3d e945 313d 602d 673d
00000200: f408 8c3c 04f6 a3bd fefc 15be ba8b 31be
00000210: e05f e6bd f75a d4bd 50e8 dabb 36b7 17bc
00000220: 3067 56bd e3a0 093d 8af6 b1bd 1561 ecbc
00000230: 1449 95bd e046 90bd 8f2c 68bd 2b5f 6abd
00000240: cbca 8b3c 0565 253e 0335 813d 6fda 3dbd
00000250: 5e0d f53d afe7 cd3d 72b7 2bbe 53e5 6e3d
00000260: 7b2e a43d ee32 1dbe b0af f3bd f960 29be
00000270: b7be 41bd 0be6 6bbd e7ae ddbb 940d fb3d
00000280: f1fe 193e 164c 3f3d 7508 843d b07f 7d3c
00000290: ff77 b23c bd9f 30bc 69f3 0bbe c49e cebc
000002a0: 0402 d7bb 3d69 c63b 0dce 093c 21ad 7dbd
000002b0: 1c61 9fbd 8411 fabc 95ce 0bbe 9cc3 223d
000002c0: c134 b4bd 72c3 b4bd 5046 833a 906f 96bc
000002d0: f1f2 0ebe 1a31 a0bb 5d28 203d e954 debd
000002e0: edfe 9fbd 0b28 63bd a191 4c3d 6855 b9bc
000002f0: 6831 4dbc 06fc 12bd 4ba0 e5bc 0ea6 a0bd
00000300: 64a7 b53b c385 69bd 83ca fabd c853 66bd
00000310: b1f9 40bd bd08 9abd af8b 323d 49df 053d
00000320: b8ba 9a3d aece 6abb 2ccb e2bc d2b1 9f3d
00000330: 11fb 90bd 12fd 55bd 656c 74bd 6f60 98bc
00000340: f8d8 5cbd 6a6c 94bd 0a15 653d c2ef 27bd
00000350: f2d3 54bd 9d56 c0bd 456e f3bb c040 4b3d
00000360: e859 33bd 6a4a a9bd 99cc c9bd 49c3 a0bc
00000370: 4447 02be 042a 03be 2913 85bd 3b8e 39bd
00000380: 5d20 30bd 0cf1 bfbd e5c8 e0bc 2135 233e
00000390: 0930 84bd 0338 7d3d 4750 62bc 1847 2a3d
000003a0: 3923 1b3d 00e4 143c 80c3 49bd 385a 7abe
000003b0: aa46 1abe 8a5d 05be 2750 86bd c70a bdbd
000003c0: 4ed6 c8bc 71c2 bbbd f3c0 8fbd 3202 02be
000003d0: 53ae 063d 3b68 91bd 150b 493c d7c3 60bd
000003e0: cd11 00bd 15d1 f8bc fcf1 8ebd ab60 a1bd
000003f0: 2e72 763d 867d 61bb 63bb 80bc 1aff 7ebc

actor_cnn.7.bias f4 [2]
0.10131374 0.114639856
00000000: 947d cf3d 4dc8 ea3d

actor_cnn.7.weight f4 [2, 7168]
-0.06176837 -0.039085716 0.0434546 -0.17748477 0.08738944 -0.08563075 -0.032488547 0.083341576
0.012231965 -0.05305461 0.048978943 -0.014862495 0.009166391 -0.24927507 -0.06396248 -0.056874048
0.14231806 0.14709306 0.016338987 -0.06877591 -0.117736235 -0.11686972 0.10217991 0.13821921
-0.044470366 -0.014290684 0.07489438 0.11177146 -0.02698326 0.027762696 0.21014209 0.011056114
0.25322184 -0.18029955 0.02974542 -0.016666478 -0.29145378 -0.003313408 0.047542296 0.02123273
0.05642885 0.014447946 0.011227916 -0.13290228 0.090167634 0.016264018 0.15342824 0.23342778
-0.10238975 -0.0077084117 -0.12457829 0.09694521 0.016428892 -0.005390828 0.2143594 -0.13885227
-0.016662207 0.09493976 -0.0029588088 -0.07098907 -0.10431847 0.10936115 0.07669564 0.013522357
-0.042988505 0.15826508 0.12733234 -0.16421328 0.046767257 0.0070521845 -0.09448328 -0.1539615
-0.0614064 0.047911502 0.022026569 -0.053928435 -0.08882399 -0.25955713 -0.15321265 -0.099810176
-0.08667329 -0.0512217 0.0025779426 -0.07138889 -0.060572244 0.022241488 0.10626757 -0.06437575
0.082482144 -0.029092915 0.109917134 0.07616913 0.025302008 0.08749285 0.056079865 0.042379595
0.114358895 -0.029259771 0.19437002 -0.13149779 -0.046661746 0.0008901437 0.02993242 -0.053132538
0.109288044 0.01596897 0.07860366 -0.010566 0.09317354 -0.00053254544 -0.012725718 -0.1443571
-0.28639406 0.02682029 0.053453214 0.19637777 -0.09154434 -0.14289045 0.05744178 0.21671411
-0.11771982 -0.1403594 -0.26392928 0.24142031 -0.0723745 -0.13418464 0.18501948 -0.01000283
-0.0062583857 0.13642947 0.02261418 0.25028038 0.1954833 0.0458302 0.119768366 0.008970638
-0.066458344 0.20088485 0.043598108 0.096413486 0.08744479 0.11469144 0.15327199 -0.280469
-0.17085111 0.03164721 0.07886373 -0.05304044 0.11477939 -0.15978849 0.12492658 -0.35522982
-0.05754655 0.100679256 -0.02544161 -0.15136395 0.14302923 -0.18977757 0.24413809 0.06328023
0.08572588 -0.08380193 0.11034562 -0.14109069 -0.040306393 0.1257479 -0.14755829 -0.13935336
0.1169343 0.11302102 -0.0668416 0.029085383 -0.035781443 -0.061575692 -0.19128126 0.08292588
0.064238854 -0.019245794 0.07132248 -0.16989651 0.10276593 -0.13022052 0.07563083 0.007759788
0.099053204 0.28025952 0.06136219 -0.02187837 -0.14474133 -0.024640072 0.13596256 0.114180334
0.047480207 -0.081005044 0.036613826 -0.060646974 -0.09202784 -0.010779281 -0.35379696 -0.24759828
-0.053665612 -0.027476365 -0.10505329 0.221871 0.034518402 -0.10174887 0.06756283 0.0063213464
0.00017584758 0.02161551 0.027469018 0.072035424 -0.10416009 0.038020503 0.15035751 0.06752301
0.01835878 -0.046362545 0.0061469087 -0.19246751 -0.13656712 0.18086796 0.11234889 -0.14667104
0.052590802 0.20032759 0.21484295 -0.08520491 0.22878155 0.22608617 -0.033406917 -0.034058426
-0.01973134 0.03405097 -0.29667222 -0.12811038 -0.021901457 0.010143847 0.1863292 -0.19602491
-0.15836543 -0.18112102 -0.056157287 0.036479086 0.10998834 -0.099077895 -0.1100728 0.17031705
0.27815482 0.14143121 0.1562901 -0.18319315 0.0947441 -0.16244122 -0.028557843 -0.13873865
00000000: d500 7dbd 5818 20bd 73fd 313d 91be 35be
00000010: 3cf9 b23d 2d5f afbd b612 05bd fdae aa3d
00000020: 9468 483c ca4f 59bd 259e 483d d281 73bc
00000030: a12e 163c f741 7fbe c3fe 82bd c3f4 68bd
00000040: d3bb 113e 909f 163e 57d9 853c 62da 8cbd
00000050: b21f f1bd 6459 efbd b343 d13d 5689 0d3e
00000060: 8f26 36bd 7923 6abc 3a62 993d 6fe8 e43d
00000070: ff0b ddbc 986e e33c 7d2f 573e b424 353c
00000080: 4ba6 813e 72a0 38be abac f33c 2388 88bc
00000090: 6e39 95be c325 59bb b6bb 423d 43f0 ad3c
000000a0: f021 673d 14b7 6c3c 4bf5 373c 8917 08be
000000b0: cfa9 b83d 1e3c 853c 4b1c 1d3e b107 6f3e
000000c0: b8b1 d1bd d896 fcbb e722 ffbd 368b c63d
000000d0: e295 863c 8ba5 b0bb 0881 5b3e 4a2f 0ebe
000000e0: 2e7f 88bc c76f c23d 93e8 41bb b862 91bd
000000f0: eca4 d5bd bdf8 df3d 9b12 9d3d e08c 5d3c
00000100: b714 30bd 3e10 223e 6963 023e 8727 28be
00000110: 068f 3f3d 0316 e73b 7380 c1bd 15a8 1dbe
00000120: 4785 7bbd da3e 443d 1071 b43c 10e4 5cbd
00000130: 5ae9 b5bd ace4 84be c7e3 1cbe 4769 ccbd
00000140: c481 b1bd d8cd 51bd b3f2 283b 5734 92bd
00000150: 9a1a 78bd c833 b63c d0a2 d93d 6fd7 83bd
00000160: 66ec a83d 4454 eebc 3c1c e13d 90fe 9b3d
00000170: 2846 cf3c 742f b33d 00b4 653d 3a96 2d3d
00000180: ff34 ea3d 30b2 efbc ef08 473e 5ba7 06be
00000190: 6320 3fbd 8858 693a d634 f53c 81a1 59bd
000001a0: 69d2 df3d 5bd1 823c f5fa a03d 041d 2dbc
000001b0: c5d1 be3d 859a 0bba 887f 50bc 59d2 13be
000001c0: 3ea2 92be 3ab6 db3c c2f1 5a3d 4117 493e
000001d0: 997b bbbd e051 12be 1248 6b3d 4eea 5d3e
000001e0: 1717 f1bd 60ba 0fbe bd21 87be e336 773e
000001f0: 1539 94bd b367 09be bf75 3d3e e9e2 23bc
00000200: 2513 cdbb 2bb4 0b3e 5f41 b93c c024 803e
00000210: c62c 483e 73b8 3b3d 1e49 f53d 95f9 123c
00000220: 501b 88bd c2b4 4d3e ee93 323d 6f74 c53d
00000230: 4116 b33d 58e3 ea3d 55f3 1c3e a299 8fbe
00000240: 98f3 2ebe 81a0 013d 4f83 a13d ef40 59bd
00000250: 7511 eb3d 989f 23be 82d9 ff3d afe0 b5be
00000260: eeb5 6bbd ed30 ce3d ec6a d0bc 27ff 1abe
00000270: 4176 123e 0d55 42be 56ff 793e 1199 813d
00000280: 0d91 af3d 59a0 abbd e2fc e13d 147a 10be
00000290: 5118 25bd 0fc4 003e 8519 17be a6b2 0ebe
000002a0: 407b ef3d 9177 e73d 40e4 88bd 7844 ee3c
000002b0: 908f 12bd cb36 7cbd 3cdf 43be 0bd5 a93d
000002c0: a98f 833d 5ba9 9dbc 8511 923d 5af9 2dbe
000002d0: f276 d23d 8758 05be 56e4 9a3d d245 fe3b
000002e0: 68dc ca3d 2d7e 8f3e eb56 7b3d 443a b3bc
000002f0: 1237 14be fad9 c9bc c539 0b3e 61d7 e93d
00000300: 9b7a 423d f9e5 a5bd 61f8 153d f668 78bd
00000310: 1879 bcbd 959b 30bc e024 b5be 678a 7dbe
00000320: 79d0 5bbd 1d16 e1bc 2e26 d7bd 2732 633e
00000330: 2b63 0d3d b661 d0bd 625e 8a3d 4c23 cf3b
00000340: ba63 3839 0313 b13c b506 e13c 4f87 933d
00000350: e351 d5bd 63bb 1b3d 52f7 193e 8149 8a3d
00000360: 2765 963c a7e6 3dbd 026c c93b 3416 45be
00000370: 40d8 0bbe 7335 393e 2d17 e63d ef30 16be
00000380: 7469 573d ad22 4d3e caff 5b3e e97f aebd
00000390: b645 6a3e 2283 673e b1d5 08bd d980 0bbd
000003a0: 9fa3 a1bc 0879 0b3d 6ce5 97be 5e2f 03be
000003b0: af6a b3bc 6132 263c 15cd 3e3e c1ba 48be
000003c0: 8c2a 22be ca77 39be 2f05 66bd 186b 153d
000003d0: 9141 e13d 5ae9 cabd d96d e1bd 9867 2e3e
000003e0: 4f6a 8e3e 58d3 103e 830a 203e fc96 3bbe
000003f0: 3209 c23d fe56 26be 23f2 e9bc 8111 0ebe
