data/sensor/neural_nets/identity_720p_2L.onnx (onnx, 1786 bytes, 4 tensors)

0.bias f4 [4]
00000000: e14f 3c3f 9132 353f 2eb4 353f 14e8 2d3f
0.73559386 0.70780283 0.7097806 0.6793225

0.weight f4 [4, 4, 3, 3]
00000000: c396 38bd 56b2 953d 4893 7b3d 271c 2c3d
00000010: 43cf 733c e581 d4bd 2e4a 4d3b d91b c63c
00000020: 658e 81bd a466 b5bb 28e3 24bd 38de b53b
00000030: d7b4 2f3d ef8f 8ebd 0eb6 e53c 925d d4bc
00000040: 9384 dfbd 6cc2 f6bd eb75 873c 24c2 763d
00000050: bdc3 76bd d6cc c53c c851 24bc 26c8 823c
00000060: 8881 b5b8 4b0f d83c b38b 243d ff1a 553d
00000070: 0a42 913c 946d cf3a d8d2 f93c 289f a9bd
00000080: 8964 af3d 8dc0 d5bb de29 adbc 108a b1bd
00000090: 2161 0f3e 6919 a13d a5f3 343d ae84 cdbd
000000a0: d1f8 eb3d cdca d9bc 3f39 6f3a 8530 bd3c
000000b0: 497d 49bc 8480 babc cbd3 2abd 806e 283b
000000c0: 11d3 9dbd a551 04bd caa9 0a3d 95a3 523d
000000d0: 59b8 263d 42a4 f2bc f0f9 073d 7e65 91bc
000000e0: d1b1 32bd f6bd 77bd 7f6c c0bd 0b11 853c
000000f0: e630 863b 497d 193a 50d7 87ba 1626 72bd
00000100: d53c 903d 157e 053c bd05 8cbd 4376 093d
00000110: 3fce 9c3c f088 3e3c 0db9 dd3c b113 7dbc
00000120: 12cd dabc bac7 e33c 7eca 523d 20e5 ae3c
00000130: 7ea9 063d 8605 fa3c d69b 883c fb1e e6bc
00000140: 6d5b fd3c 9f64 c5bc d1af 70bd f914 2a3b
00000150: 6b41 9f3d 04ff 81bd dcef 923d a06e 88bd
00000160: 29bd a23d a3d4 723d 5185 3b3d 8659 823d
00000170: 7d9e 3ebd 4716 2cbd ee6e e43d 305a 883d
00000180: fd86 043c 1e4c 343d eab4 b4bc eceb 973d
00000190: 846e e63d 4dda 9b3c 2f49 0abd a4e6 043d
000001a0: 9bd8 8cbd bf3b 86bc 72f9 1cbc 5df5 1f3d
000001b0: 26b5 b1bc 1e0d dc3c 1cfd 113d edb6 11bc
000001c0: 381b acbd 2db4 a5bc 6293 dcbc 91c7 2cbd
000001d0: 14a4 123d 7b46 a03b 9d17 11bd 40c0 d43a
000001e0: 76c7 91bc 54ab 30bd 2a30 3b3d 611e 9f3d
000001f0: cd1a 66bd f2a2 d0bb b2ec a03b 4f10 5f3d
00000200: 56d8 11bd 77e8 b23d 9f4c 83bd a986 a43d
00000210: 08b3 67bc beac fabd 0f58 8abd 6064 703c
00000220: eb2a 223d ca36 693c 67c3 e23d ff8f dc3d
00000230: 855f 64bd a21e bf3c 60c5 80ba 1e12 483d
-0.045065653 0.073094055 0.061419755 0.042019036 0.014880958 -0.10376338 0.0031324732 0.0241832
-0.06325988 -0.0055359174 -0.040255696 0.005550172 0.04289707 -0.06961047 0.028040912 -0.025923524
-0.109139584 -0.12048802 0.01653572 0.06024374 -0.060245264 0.024145525 -0.010029264 0.015964579
-8.65488e-05 0.02637448 0.04017229 0.0520277 0.017731685 0.0015825504 0.030496046 -0.0828231
0.085640974 -0.006523198 -0.021138128 -0.086689115 0.14001895 0.07866175 0.04417767 -0.10035072
0.11522067 -0.02658596 0.0009125657 0.023094425 -0.012297937 -0.02276636 -0.041705888 0.0025700629
-0.07706273 -0.032304425 0.03385333 0.051425535 0.04070315 -0.02961934 0.033197343 -0.01774859
-0.04362661 -0.060483895 -0.09395694 0.016243478 0.0040951846 0.0005855156 -0.0010363851 -0.059118353
0.07042853 0.008147736 -0.06837032 0.03356005 0.019141315 0.011629328 0.027065778 -0.015446589
-0.026709113 0.027805198 0.051462643 0.02134949 0.032876484 0.030520212 0.01667587 -0.028090945
0.030927384 -0.024095831 -0.05876142 0.0025952442 0.07776149 -0.063474685 0.07174656 -0.06661725
0.07946236 0.059284817 0.045781437 0.063647315 -0.046537865 -0.042013433 0.11153971 0.06657827
0.008088824 0.044017904 -0.022058923 0.074180454 0.11251548 0.019024992 -0.0337612 0.03244652
-0.06877252 -0.016385911 -0.009580957 0.039052356 -0.021692824 0.026861724 0.035641775 -0.008893711
-0.08403629 -0.020227516 -0.026925746 -0.04218251 0.03580101 0.0048912144 -0.03542291 0.0016231611
-0.017795306 -0.04313214 0.04570023 0.07769466 -0.056177903 -0.006367081 0.004911029 0.054458912
-0.035606705 0.087357454 -0.06411099 0.08033497 -0.0141418055 -0.12239979 -0.06755077 0.014672369
0.03959171 0.014234254 0.11072426 0.107696526 -0.055755157 0.023330037 -0.0009824447 0.048845403

2.bias f4 [4]
00000000: e514 30c0 41f9 3a40 607f 4cbf b0cf 71c0
-2.7512753 2.9214633 -0.7988186 -3.7783012

2.weight f4 [4, 4, 3, 3]
00000000: 9cbd 74bf ec1a a53e 189f 1b3c 1248 babf
00000010: e2c4 853e 1efa 0c3f 5ad4 403f ff70 753f
00000020: d375 2bbf 5ac6 5dbe e851 b23e a3c8 52bd
00000030: dd28 d0be 2900 d13f 9448 b8bf d364 083f
00000040: 8cb3 873f 9645 ec3f 3251 d03e d204 b4be
00000050: 3cfc 733e 0858 bd3e b849 053f e9fc 9e3e
00000060: 38e2 1d3f cfe0 c93e 2dbc d5be 4eaa 0c3f
00000070: 7f79 f3be c11f a6be 3a87 9cbe d75c 8fbf
00000080: 1a3f a5bd 3fea d53e 0290 bb3e dc9f 52be
00000090: e9cd cabf ba91 babf cb05 b4be 5ae1 b93e
000000a0: e60b 74bf 9988 173f 1611 013e 1b71 04bf
000000b0: b919 40bd 30fa bebe e908 103f 853c 513f
000000c0: d7a3 f73e 711e fdbe 9fa5 81bf 716f a03d
000000d0: 920d 17bf 1c43 69be d3fe 553f 012a 943f
000000e0: f591 75bf 5882 7e3f 1952 68bf a644 8d3f
000000f0: 3f10 083d da2d 57bf 165d adbe 16ea 3bbe
00000100: 5e3c 4bbf 6e3e 803f ee84 0f3f cba1 12bf
00000110: 0aff c3be 78d2 61bc 1d40 e4be d76e 993d
00000120: 72cf 133f e69a de3e 48cb 23bd a74e 373e
00000130: 6ef7 e0bb ab07 9b3e 6473 71bf 0153 5a3f
00000140: b0c9 1f3e fab7 fa3c 2827 8ebc f47a df3d
00000150: 20d3 8f3e 29ec b1bf 1c93 4cbf c923 18bf
00000160: 2b4b 9bbe 0190 f43e 9104 93be 98cc 363f
00000170: 247a bd3d 4aa8 623f 3124 d23f 2b09 37bf
00000180: 8883 34bf 013f 613f f264 0c3f 982c 6cbf
00000190: 5879 dfbf 10a2 27be e2fa 9a3f 463a 80bf
000001a0: b5f1 9c3f 0426 e9be 337e 293f 6bd6 03bc
000001b0: da9a 9cbf 8931 49be d33f a3bd ac70 9c3f
000001c0: fedd 8abf 7b60 d13e 5490 cbbb b22c 643e
000001d0: 8aad 2f3f b21d 5cbe 8032 db3e f271 163e
000001e0: 1c96 733e 1ee5 0c3f fc68 73bf cd03 c63d
000001f0: 4bda 863f c077 56bf 8e30 fd3e 2bd8 56be
00000200: 1817 38be 4e8a 87bf 1a78 9f3e 1f96 13bf
00000210: 1d9c 8c3e 840b bd3f 5c29 7f3f 14a9 2b3f
00000220: b9f3 37bd 91f2 483e a9ce 59bf f3e2 b83f
00000230: 8515 b13f 18e5 1a3e 13af d83e 0f7d b1ba
-0.9560182 0.32247102 0.00949838 -1.4553244 0.26126772 0.5506915 0.7532402 0.95875543
-0.6697666 -0.21657696 0.34828115 -0.051460873 -0.40656176 1.6328174 -1.4397149 0.53278846
1.0601668 1.8458736 0.40686947 -0.35159928 0.23826689 0.36981225 0.5206561 0.3105233
0.6167331 0.39429328 -0.4174513 0.54947364 -0.47553632 -0.324461 -0.3057192 -1.1200207
-0.08068676 0.41780278 0.36633307 -0.20568794 -1.5844089 -1.4575722 -0.3516067 0.36304742
-0.95330656 0.59192806 0.12604174 -0.51735085 -0.04689953 -0.37300253 0.56263596 0.8173297
0.48367187 -0.49437287 -1.0128669 0.07833756 -0.5900508 -0.22779506 0.83591956 1.1575319
-0.9592584 0.9941764 -0.9075027 1.1036575 0.03321862 -0.8405434 -0.3386008 -0.18351015
-0.7938899 1.0019052 0.5606221 -0.57278126 -0.38280517 -0.01378309 -0.44580165 0.07491844
0.5773841 0.43477553 -0.039988786 0.17901097 -0.0068654334 0.30279288 -0.943167 0.85282904
0.15604281 0.030605305 -0.017352656 0.10912123 0.28090763 -1.3900195 -0.7991197 -0.59429604
-0.30330786 0.47766116 -0.2871442 0.71405935 0.09251812 0.8853804 1.6417295 -0.71498364
-0.705132 0.8798676 0.5484153 -0.92255545 -1.7458906 -0.16370416 1.2107813 -1.0017784
1.2261263 -0.45536816 0.6620819 -0.008046727 -1.2234757 -0.19647802 -0.07971158 1.2221885
-1.0848997 0.4089392 -0.0062122736 0.22282675 0.68624175 -0.21495703 0.42811966 0.14691904
0.23787731 0.55037105 -0.9508207 0.09668694 1.0535368 -0.83776474 0.49451107 -0.20980899
-0.1797756 -1.0589082 0.31146318 -0.5765094 0.27462855 1.4769139 0.99672484 0.6705487
-0.044910166 0.19623782 -0.85080963 1.444426 1.3834692 0.15126455 0.4232107 -0.0013541299
