data/sensor/neural_nets/rl_SCM_simple.onnx (onnx, 370931 bytes, 18 tensors)

actorMLP.0.bias f4 [30]
00000000: 594e 4fbe 6e63 b73d b30b 213e 6d4e 70bd
00000010: c432 04bc c3b0 123e 575e 85bd e8b8 ca3c
00000020: 531b 043e 02b1 f03d aba6 d53d 4298 cb3c
00000030: 3010 b83d 50a5 143e 8b94 693e 422d be3d
00000040: 3c44 0e3d c370 d1bd 734b 283e 4db6 433e
00000050: df99 623e ea78 a63c 6c62 32be f859 69bd
00000060: ea7f b4bd 1d2b 803e d9ce 09be 190b ca3d
00000070: adf9 12bc 4ef6 65bd
-0.20244731 0.089545116 0.15727119 -0.058668543 -0.008068744 0.14325242 -0.065121345 0.024746373
0.12901048 0.117525116 0.1043218 0.024852876 0.089874625 0.14516187 0.22810571 0.09285976
0.034733042 -0.10226586 0.16435032 0.19112511 0.2212901 0.020321328 -0.17420357 -0.056970567
-0.0881346 0.25032893 -0.13457812 0.09865398 -0.00897066 -0.056143098

actorMLP.0.weight f4 [30, 6]
00000000: e659 d43d d434 7dbd c163 0ebe 3ac4 943d
00000010: 9aa5 9cbe 93ff afbe 846f 0abe 654a 26bd
00000020: b8bc 7d3e 0c7a 3bbc 3a44 89bd a10c f83c
00000030: d0f9 3abe 51a4 303e 5c77 083f ebb4 3bbe
00000040: de7b 213d 44e4 e9be 0292 a1bd 5008 973d
00000050: 3fac 8e3e 7d7c 033d 1c4b 87bd 540a d9be
00000060: d060 4dbe 5f6f aabd 7a16 bb3b 952c 033d
00000070: 6619 55be 4840 f5be afeb 40be 9c1e 3b3d
00000080: 8833 b43e 9927 ed3c 7503 45be 1a33 f13c
00000090: a3ec 9abd 922f 06be 3366 153d 3493 a93e
000000a0: 924a f4bd 6ce0 cc3b 126b 553e 08f8 fbbd
000000b0: adc8 e43c 6c0f 663d 88d1 493e 22bb 6fbd
000000c0: 8576 a3bd 9436 ad3d ece3 353e 8f70 0cbc
000000d0: b47d 11bf eba3 52be 0d26 293e 98a4 fb3a
000000e0: 149d c8bc fd4e 1bbe 81bf 26bd 8a35 5e3e
000000f0: f18f f5bd 760e 913e f205 1c3d a338 043d
00000100: d437 18be 27ee e33d b360 91bd c5ac 3d3d
00000110: 5347 0ebe 4f5f 12be d18f 9bbc 3f53 99be
00000120: e30b 9c3c 890e ff3d 5abe 3c3d a96c 5dbe
00000130: 0652 1a3f cdb0 9abe f713 173e a7ca 4bbe
00000140: 34c9 a03c 29a2 5d3d 7a07 0c3e 0353 913e
00000150: 56e9 aa3e 5e58 6fbd e6a4 3ebd 8cea 493d
00000160: 356b 973e bc13 14be 858b 40be b7e5 4d3c
00000170: f9e3 8a3e e301 183d 5f59 0ebe 2223 debd
00000180: a8c5 63bd 1dac 50bc fa7b a73e c699 213e
00000190: e932 83be abd3 43be 2560 ea3d a24d c8bd
000001a0: aed2 d0bd b3c8 7bbc 56b3 e0be f75e e9be
000001b0: 4717 6d3e 22f1 f23d 7eea 0bbe 175f fabd
000001c0: fecd 893e b166 973e b723 ffbc fb89 323e
000001d0: e80f 84bd d40d 54be bd3c 023f d193 9cbe
000001e0: 1cdb a23e b6fe 42bd be39 c2bd 1fd4 94bd
000001f0: db5b 8e3e 54bf e03e f9d3 f6bd 28f0 07be
00000200: 8e26 4f3e 1a23 5f3e f98d 92bd 1895 4ebe
00000210: 70b2 c7bb ae0d 713e d141 b1bd 79b1 b03c
00000220: 6543 27bf 91f4 32be 2311 b53c 6ecf 1cbe
00000230: 9441 73be 1e5e 083e 5058 6bbe 95cb 88bd
00000240: f5eb 333d 6f8c fbbd af81 80bb eb24 3a3e
00000250: 0451 9ebe 2085 c33a a91b a5bd 534d 53be
00000260: 4831 e93d c823 893d 81aa f73d 0acc 8d3e
00000270: 3748 e83c 4484 21be 50f1 783d 5e6f 413e
00000280: f227 dcbe 937c 82bc ce81 3b3e f17e 403c
00000290: 31e1 87be 01b6 07be 5304 82be 0838 f23d
000002a0: f982 5cbe 0fac d2bd fa90 573e d04c 603e
000002b0: 0f34 673d 5f63 803d df9f 1dbe 66e9 b13d
000002c0: b8cd 55be 8696 c0bb ad80 63be 5c23 cabe
0.10368709 -0.06181796 -0.1390524 0.0726399 -0.30595094 -0.34374675 -0.13519102 -0.040598292
0.24779022 -0.011442672 -0.06702466 0.03027946 -0.18259358 0.17250182 0.5330713 -0.18330733
0.03942477 -0.45681965 -0.07889177 0.07374632 0.27865788 0.032101143 -0.06606123 -0.42390692
-0.20056462 -0.083220236 0.0057094665 0.03202494 -0.2081047 -0.47900605 -0.18839906 0.04568349
0.35195565 0.028949546 -0.192396 0.029443312 -0.07564666 -0.13104084 0.036474418 0.3312012
-0.11928286 0.006252339 0.20841625 -0.123031676 0.02792772 0.05616705 0.19708836 -0.058528073
-0.0798159 0.084576756 0.17762727 -0.008571758 -0.5683243 -0.20570342 0.16518421 0.0019198833
-0.024488963 -0.1516685 -0.040709976 0.21700111 -0.11990345 0.28331345 0.038091607 0.032280575
-0.14865047 0.11129408 -0.07098522 0.046307344 -0.13894396 -0.1429417 -0.018989475 -0.29946324
0.019048637 0.12453944 0.04607997 -0.21623482 0.6028141 -0.30213013 0.1475371 -0.19901524
0.019627191 0.054109726 0.13674727 0.28383645 0.33381146 -0.058433883 -0.04654398 0.049295947
0.2957398 -0.14460653 -0.18803222 0.012566975 0.27127054 0.037111174 -0.1390128 -0.10846545
-0.05560842 -0.0127363475 0.32711774 0.15781316 -0.2562478 -0.19123714 0.11444119 -0.09780432
-0.10196434 -0.015367675 -0.43886822 -0.45580265 0.23153411 0.11862399 -0.1366367 -0.12225168
0.26914972 0.29570535 -0.03114496 0.17435448 -0.064483464 -0.207084 0.5087393 -0.30581525
0.31807792 -0.047606193 -0.0948367 -0.072670214 0.27804455 0.43895972 -0.12052149 -0.13275206
0.20229551 0.21790734 -0.071559854 -0.20174062 -0.0060942695 0.23540375 -0.086551316 0.021569
-0.6533721 -0.17476107 0.022102898 -0.15313503 -0.23755485 0.13317153 -0.22982907 -0.06679455
0.043926198 -0.12282645 -0.0039217095 0.18178146 -0.30921185 0.0014916994 -0.080619164 -0.20634966
0.11386353 0.06696278 0.12093068 0.27694732 0.028354747 -0.15773112 0.06077701 0.1889014
-0.42999226 -0.015928542 0.18311235 0.011749015 -0.26538995 -0.13253023 -0.25393924 0.11827093
-0.21534337 -0.10286724 0.21051398 0.21904302 0.05644613 0.062689535 -0.15393017 0.08687095
-0.20879257 -0.005877319 -0.22217055 -0.39480102

actorMLP.2.bias f4 [40]
00000000: a0cf e13d fad8 553d 8c60 cd3b f616 b03d
00000010: 4f6d 8a3e 8b4e bebd 7058 6f3e 9045 933d
00000020: 5137 633d d26b 423d 8df2 d13c e4c4 0a3e
00000030: 2fb4 c8bd 8e1f 9f3c d544 883e db26 8e3e
00000040: 9c43 e13d 97cf 253e 0599 83bd 2e9c b93d
00000050: 377c 9b3d 3bd0 1b3e 8532 a93d 500b 603d
00000060: 0186 9b3d 494f 913d f0aa 7a3e 723f d53d
00000070: 9a18 223e c1e9 8e3d a995 053e 9455 2b3e
00000080: 273b d4bd ddb7 113e dcbc ab3d e76e 213e
00000090: fd4f 06be 49b0 863d ab54 283c 14cb 673e
0.110259295 0.052208878 0.006267613 0.085981295 0.2703652 -0.09292325 0.2337358 0.07191002
0.055472676 0.047466107 0.025628353 0.1355167 -0.09799992 0.019424226 0.26615015 0.2776402
0.109992236 0.1619247 -0.064256705 0.09062992 0.075920515 0.15216152 0.08261589 0.05469829
0.075939186 0.070952006 0.2447927 0.10412492 0.15829697 0.06978179 0.13045372 0.16731864
-0.10362845 0.14230295 0.083856314 0.15764962 -0.1311645 0.065765925 0.010274093 0.22636062

actorMLP.2.weight f4 [40, 30]
00000000: 0ded c73c a76e 2c3e 1510 3abd fc29 893e
00000010: 0628 fbbd f1ec cbbd 869e 733d 9a2f 993d
00000020: b49a 67be bc59 8abd 8e2a 873c eb77 3a3e
00000030: 3750 743e 994a 05be 1e27 933d a867 9cbd
00000040: ed90 dd3d c319 603e 06c8 e93d e430 e73e
00000050: 5f35 69bd 1a0d 86bd 9228 cabd cf46 05bd
00000060: 2324 ea3d ad30 7bbc 6a11 803e 9431 abbd
00000070: dcab 8bbd d50a 4e3e 221f 0f3e ee01 13be
00000080: 07b7 6cbc 7f75 00bf 3489 903e 9469 76be
00000090: 6090 10be ba53 08be df72 c2bc 2697 04bd
000000a0: 17ce 62be 8aea 213e 0d83 88be 9ffb 94be
000000b0: 9408 31be dae0 89be b331 80be 1ecd c03e
000000c0: 946d 32bd a46e d1bd d53c 4abe 986a 553d
000000d0: 23b1 893d 2e5b 5a3d 0b9e 20be 289d fc3d
000000e0: 77a4 5a3e 2b1f 8a3e b170 b2be 1dc1 403e
000000f0: e045 9a3c 12e0 8cbc da44 febd 9541 793c
00000100: eb7d 6bbe f1c8 173d 5f15 c3bc 892e f83b
00000110: df73 c7bd 2ee5 41bd 4667 96be b422 4fbe
00000120: 75bb 2bbe 842c 86bc 8435 8fbc 83df 43bd
00000130: da8a a33d 0152 14be 7f66 6dbe 4790 bfbd
00000140: 378f 5dbd bf7f 0a3e 71db 12bf 4089 40be
00000150: 1b49 d13d b752 8e3d 862c 81bb 1ec6 f4bd
00000160: f41a 493c 6cf7 73be f33b 913e aa4e dd3d
00000170: 6838 783e 610d 083e bc65 d73e 1d7f 003e
00000180: a5e8 f33c a4bf 24be c56a 16bd 0a62 0fbe
00000190: 2390 8dbd 1d58 0e3e 4393 3d3e fb6e 713d
000001a0: c375 20be 1a11 3e3e c5c6 153e dfe0 373e
000001b0: 6c68 9dbe f905 80bd ee4f 8ebe f4fc 873c
000001c0: 3ceb b1bd 73aa 71be 146f aabd 67d6 b73d
000001d0: 0ea2 e9bd f471 45be 614a c03e 6b10 bdbd
000001e0: 97f8 213c 02bd b1bd 6f21 dcbc f8ce eabc
000001f0: a45c 793e 356b 2abe f792 293e cc06 b03e
00000200: 4dea 5cbe 6d34 963d eb75 a73d 0cfa 52bd
00000210: 70da 023e 1dc6 02be 4e3a 3a3e 7c80 a53d
00000220: 28ae 57bd 4fde 85bb ad43 bb3d bb0c 543d
00000230: e02d ce3d 8628 bdbd d159 6ebe 0062 03bd
00000240: 791b 58bd d248 f4bc 94db 2b3e 4dfa 4bbd
00000250: ff31 6cbe b5a5 3c3e a025 d53d 6ec4 57bc
00000260: d132 dcbc d929 01be 06e6 3f3d 6c3f b7be
00000270: dcb8 5cbe a1ac 1ebf 59a5 2fbe 299b e0be
00000280: 8e53 cabe bf4b 3ebd b807 aabe ac32 c2be
00000290: aa10 fabd 2149 94be 4116 a9be 1513 903d
000002a0: 1f3b 98bd fbd9 0dbe 0868 3dbe 56b7 713d
000002b0: 62d8 2ebe 4edd 5c3e 3954 cdbd 24b5 8e3e
000002c0: 80f6 233e 9628 4bbd 6161 4bbe 546f bc3c
000002d0: 0819 09bc e7da 393d 42c5 333e a6d4 c13d
000002e0: 687a f0bd 436f 1b3d 1ef4 6dbe 0bd3 903d
000002f0: c623 51bd c145 1c3d 228d 043e 9b37 703e
00000300: 195b 5fbe 0cb5 c43d 7045 c73d 5287 113e
00000310: f0a5 38be 3f3e 01be fd96 373e a23a e0bd
00000320: 9ef9 9c3d ac5c adbd 1bd7 713e 05bb a43d
00000330: 2ee6 4ebc e071 5c3e 26b3 8cbe 51e6 703e
00000340: 2fda 4f3e 91cc 83be 47fe 93bb 9b37 123e
00000350: 10d8 12be f7e3 4b3e ab9c 2d3e b70b 5fbe
00000360: e558 843d 2e79 4cbd 95b0 06be 2580 13be
00000370: 2be6 083e a8fa 9bbd 4fb2 b33d fa32 b33d
00000380: 6a69 283e 805c 2fbe 4c56 57bd 03df 02be
00000390: ad4b 8abe 9ead a33c c439 58be a4dc 473d
000003a0: ee86 c9bd fdf5 413e 37f7 c53b 5f23 a8bc
000003b0: 33e2 293e 12a2 3cbe d41b 58be 1d8f c23e
000003c0: b2c9 c63d c294 03be 6422 2dbc 1207 a83d
000003d0: 9f71 30bd a1b2 11be 5811 2abc 85d4 26be
000003e0: 702a 5fbe c1d5 babb a216 5fbe 7457 ca3d
000003f0: 2cae 8ebd 3780 923c 4160 5cbd 4562 d1bd
0.024405027 0.16839086 -0.045425493 0.26789844 -0.12263493 -0.09957302 0.05947735 0.074797824
-0.22617608 -0.06755397 0.016499784 0.18209808 0.23858725 -0.13016738 0.071851954 -0.07636958
0.10818658 0.21884827 0.114151046 0.45154488 -0.056935664 -0.06545468 -0.098710194 -0.03253823
0.11432674 -0.015331429 0.25013286 -0.08359066 -0.06819889 0.2012132 0.1397672 -0.14356205
-0.014447934 -0.50179285 0.28229678 -0.24063712 -0.14117575 -0.13313189 -0.023736415 -0.03237071
-0.2214893 0.15812126 -0.26662484 -0.29098222 -0.17288429 -0.2692936 -0.25037917 0.37656492
-0.043561533 -0.10226181 -0.19749768 0.05210361 0.06723239 0.053309612 -0.15685289 0.12334663
0.21351801 0.26976904 -0.34851602 0.18823667 0.018832147 -0.017196689 -0.12415476 0.01521339
-0.22997253 0.037056867 -0.023813901 0.007573907 -0.097388975 -0.047337703 -0.29375666 -0.20228082
-0.16770728 -0.016378649 -0.017481573 -0.04782058 0.07985468 -0.14484407 -0.2318363 -0.093536906
-0.05409166 0.13525294 -0.5736609 -0.18802357 0.10219022 0.0694937 -0.003942075 -0.1195185
0.0122744925 -0.23824853 0.2836605 0.108060196 0.24240267 0.13286354 0.42069805 0.1254849
0.02977402 -0.1608873 -0.036722917 -0.14002243 -0.069122575 0.139008 0.18513207 0.05894373
-0.15669923 0.18561211 0.14626606 0.17956875 -0.3074373 -0.06251139 -0.27795357 0.01660011
-0.086874455 -0.23600177 -0.08321968 0.08976441 -0.114078626 -0.19281751 0.37556747 -0.09231647
0.009885929 -0.086786285 -0.026871411 -0.028663144 0.24351746 -0.16642459 0.16559969 0.34380186
-0.21573754 0.07334218 0.08176788 -0.051507995 0.1277864 -0.12770887 0.18186304 0.08081147
-0.052656323 -0.004085339 0.091437675 0.051769953 0.10067344 -0.09236245 -0.2327645 -0.032075882
-0.052760575 -0.02981988 0.16782981 -0.049799252 -0.23065947 0.18422587 0.10407567 -0.013169391
-0.0268797 -0.1261362 0.046850227 -0.35790575 -0.21554893 -0.6198216 -0.17152919 -0.43868378
-0.39516872 -0.046458956 -0.33209014 -0.37929285 -0.1221021 -0.28962043 -0.3302479 0.070348896
-0.074331515 -0.13852684 -0.18496716 0.059012733 -0.17074731 0.21568796 -0.1002583 0.27872574
0.16012001 -0.049599253 -0.19861366 0.023002304 -0.008367784 0.045374777 0.17555717 0.094643876
-0.11742097 0.037947904 -0.23237655 0.07071503 -0.051059507 0.03815246 0.12944463 0.23458712
-0.21812095 0.096048445 0.09730041 0.14211777 -0.1803205 -0.12621401 0.17928691 -0.10948683
0.07664798 -0.084649414 0.23617212 0.08043484 -0.012628121 0.21527815 -0.2748043 0.23525359
0.20298074 -0.2574201 -0.004516396 0.14279024 -0.14340234 0.1991118 0.16954295 -0.21781813
0.06462268 -0.049920253 -0.13153298 -0.14404352 0.13369052 -0.07616168 0.08774244 0.087499574
0.16446462 -0.1712513 -0.052572533 -0.12780385 -0.2701086 0.019980248 -0.21115786 0.048794404
-0.09840189 0.18941493 0.006041433 -0.020524679 0.16590194 -0.184212 -0.21104366 0.37999812
0.09706439 -0.12849715 -0.010567281 0.082044736 -0.043077108 -0.14228298 -0.010380112 -0.16292007
-0.21793532 -0.005701751 -0.21785977 0.098799616 -0.069668144 0.017883403 -0.053802732 -0.102238216

actorMLP.4.bias f4 [10]
00000000: b067 0d3e b7ff 283e 2017 57bc 568a 7b3d
00000010: 899d 0e3e 826d 683e 2576 283e 6a43 013e
00000020: d14d 173d fad2 1f3e
0.13809085 0.16503797 -0.013128072 0.061411224 0.13927282 0.22698024 0.16451319 0.12623373
0.036939446 0.15607825

actorMLP.4.weight f4 [10, 40]
00000000: e90e 3a3e ef4a 903e f228 50bd c496 95be
00000010: 49c2 01bc cca7 e73e f06b 50be 7785 ce3d
00000020: 5216 c43d d0e7 4fbe f416 d2bd bbf6 86be
00000030: 7f47 f73c a0b3 c63d b002 69be 2ba1 823e
00000040: 4810 2f3e 46f1 93bd 5255 903e 8019 5cbd
00000050: 843f 893d e9ee 1d3e bb06 14bf 5cbf a33e
00000060: 3d54 3e3e fcaf 08be ac3f 08be baa9 cb3d
00000070: 682b 8c3e eed1 61be d9cf 90be 555e 293e
00000080: 6bd5 cb3e b68c 43be f92a c7be 9255 103e
00000090: b226 6f3d c84a e63d 4271 b13d a892 70bc
000000a0: 2801 a73d 728f 54be 27d4 25be 86c4 e33e
000000b0: 2b7f 333e 3290 4ebe 3080 923d 3216 303d
000000c0: 5161 aa3d cc69 553e 65a6 b9bd 77b7 e83d
000000d0: c0b9 ebbd a966 6ebc a390 283e a7ff 12be
000000e0: c694 56be d556 0dbd 5596 413e 23be 963e
000000f0: 14e0 6d3c c7d9 1bbe 34f8 e63e 2e74 aa3e
00000100: 3cb9 3d3e 3dec 883c 164d 833e eab2 f53c
00000110: b431 bc3d 1c92 533e db0f aa3e aebd 203d
00000120: 9982 6abe 7a94 f13b c6fd 673e b613 8dbd
00000130: df63 50bd 96d6 c43e 59d8 e23d a513 8e3e
00000140: abf3 10be f843 94bd a887 48be 7548 cabe
00000150: df1b 683e ef4d 34be e93b 3cbe ac8b 1cbe
00000160: 1046 babc 19de a63d 2050 3c3d 0e15 d53b
00000170: 4c16 33bd d123 0e3e 961e ee3c 0e0d 8dbe
00000180: d156 aebd 78a1 2a3d 9e47 8c3e 37dc 0b3e
00000190: db00 f3be a844 2fbd e5f4 8dbd 2484 7b3d
000001a0: 7e79 e13c 3287 c93d c8a7 4e3e 089f 233d
000001b0: ba57 1cbe bf7b 88be 3416 2abe 4d31 fc3d
000001c0: 9ce1 403d 2020 6e3e bb65 273d d92d b43d
000001d0: 6b1b e53d 63d0 bb3e eaa8 ae3d d74f 47bc
000001e0: 5f21 27be 1784 79bd 92d4 763d 59af 89bb
000001f0: 0fa2 963e 7bbe 43be da5f c3bd 7d3f 86bd
00000200: 3504 5b3d f148 433e b5fe 3cbe eaed 1f3e
00000210: 7935 0d3e b97a f9bd 7ec8 8c3e b077 4cbe
00000220: 776f d7bd 3739 9f3e a63c 3a3e 3341 283e
00000230: 0a1b f0bd d41e 183e 9095 923d b6da 343d
00000240: 6903 593c a1c6 c73d 4e8c 233e 599d e2bc
00000250: 5156 fb3d 6d28 1abe 1580 673e 5a10 27be
00000260: 08ba bebe b7c6 373e 4325 d43d 6e44 a93d
00000270: 5bb3 593e fa87 d73d 023d f1bd ebe7 693d
00000280: a34d e83d 3b22 e93e db10 82bd fafe 9abe
00000290: 29cc f43d 3d02 c43e bab4 2abe 8a22 223e
000002a0: 786d 48be beb4 2bbe dc65 ac3c db25 21be
000002b0: 5a41 43bc 5f5d 983d df7e 8dbe 11a2 293e
000002c0: fd6c f83d ab78 bbbd 8ef5 e0bd 32dd c3bd
000002d0: 418c 0f3d 35ae 843e 493a 2dbf 6b0a c53b
000002e0: 345d 133e 036c bbbd baf7 a3be 5562 963d
000002f0: c4fc 8e3e 812c 4bbe ff04 1bbe 29b1 c83e
00000300: ec0e 933e c2d7 6b3d 9a50 4cbe c352 233e
00000310: ea1e a93d f629 0c3d ce99 80bb 7bdc 0dbe
00000320: 2d74 fcbc 2a3d 7ebe 6e47 0d3d 31a3 0f3e
00000330: 91bd e43d dc0a 09bc fc5b f03d 6360 fbbd
00000340: 3877 5e3d 247b 94be b282 713e 442d 733e
00000350: 3b31 ab3d cb78 893d 24ec 273e 7c9d e1bd
00000360: 5e2a b1be d7ce 12b9 b0e9 69be 9552 483e
00000370: 8372 19bd 251e 5ebe 7875 c33e bb97 edbe
00000380: 2448 8abd 039c 03be 14b9 403c 1a99 5dbe
00000390: f065 b7be a9a5 4e3e 331e 8b3e 8e48 623c
000003a0: 16e3 b1bd 0e70 943c dcb7 3f3e bce6 14bd
000003b0: 5b82 263e 20c4 16be 5fba 5d3d acff b03b
000003c0: c926 6a3e 3703 6b3e e794 2c3e a295 4abe
000003d0: b909 0d3e 14a4 8d3e c178 5c3d 0442 073e
000003e0: 4660 153e 490b 0fbd c2a2 edbd da6e 13be
000003f0: 1be8 263e a586 633e f750 7dbe 5dee 57be
0.1816975 0.2818217 -0.0508203 -0.29216588 -0.007919856 0.45245206 -0.20353675 0.1008405
0.0957457 -0.20303273 -0.10258284 -0.26360115 0.03018546 0.097022295 -0.22754931 0.25513586
0.17096055 -0.07223754 0.28190094 -0.053735256 0.06701568 0.15423168 -0.5782277 0.31981933
0.18586822 -0.13348383 -0.13305539 0.09944482 0.27376866 -0.22052738 -0.28283575 0.16539891
0.39811262 -0.19096646 -0.38899973 0.14095142 0.058386512 0.11244732 0.0866418 -0.014683403
0.081545174 -0.20757845 -0.16194211 0.44485873 0.1752898 -0.20172194 0.07153356 0.042989917
0.08319343 0.2084114 -0.0906494 0.11363118 -0.115100384 -0.014550843 0.16461425 -0.14355336
-0.2095519 -0.034506638 0.18905003 0.29441938 0.014518756 -0.15219794 0.4511124 0.33291763
0.18527693 0.01671421 0.2564475 0.02999254 0.091891676 0.20661205 0.33215222 0.039243393
-0.22901382 0.007372436 0.226554 -0.06888525 -0.050876494 0.38444966 0.11076421 0.27749363
-0.14155452 -0.072395265 -0.19582999 -0.39508405 0.22666882 -0.17607854 -0.18382229 -0.15287656
-0.022738487 0.081478305 0.04597485 0.006502754 -0.043722436 0.1388085 0.029067319 -0.27549022
-0.08512653 0.041657895 0.2739839 0.13658224 -0.4746159 -0.042790085 -0.069314755 0.061405316
0.027523752 0.098402396 0.20181191 0.039946586 -0.1526784 -0.2665691 -0.16610032 0.12314091
0.047090158 0.23254442 0.040868502 0.08797807 0.1118687 0.36682424 0.085283116 -0.012165031
-0.16321324 -0.060916986 0.060261317 -0.0042018113 0.29420516 -0.19115631 -0.095397666 -0.06555078
0.05347081 0.19070794 -0.18456538 0.15618101 0.1378993 -0.121816106 0.27496713 -0.19967532
-0.10519307 0.3109834 0.18187198 0.16431122 -0.11723907 0.1485551 0.07157433 0.04415389
0.013245442 0.09754682 0.1597149 -0.02766292 0.12272323 -0.15054484 0.22607453 -0.16314831
-0.37251306 0.17946897 0.103586696 0.08265005 0.21259825 0.10523982 -0.117792144 0.05710594
0.11342933 0.45533928 -0.06350871 -0.30272657 0.11953003 0.38282958 -0.16670504 0.15833488
-0.19573009 -0.16768166 0.021044664 -0.15737097 -0.0119174365 0.07439684 -0.27635857 0.1656573
0.12130163 -0.09153875 -0.10984336 -0.09563674 0.035045866 0.2591416 -0.6766706 0.006013205
0.14391023 -0.09151461 -0.32024938 0.07342974 0.2792722 -0.19841196 -0.15138625 0.39197662
0.28722322 0.05757881 -0.19952622 0.1594954 0.082578495 0.034219705 -0.003924585 -0.13853638
-0.030817116 -0.2482802 0.03449195 0.14027096 0.111689694 -0.0083644055 0.117362946 -0.12274244
0.054312915 -0.290002 0.23585013 0.23747736 0.08358999 0.067124926 0.16398674 -0.11016366
-0.34602636 -0.00014000699 -0.22843051 0.19562753 -0.037462723 -0.21691187 0.3817556 -0.46404824
-0.06752041 -0.12852482 0.011762876 -0.21640435 -0.3581996 0.20180382 0.27171478 0.013811244
-0.08685891 0.018119838 0.1872248 -0.036352858 0.16260664 -0.14723253 0.054132815 0.005401572
0.22866358 0.22950445 0.16853677 -0.19783643 0.1377324 0.27664244 0.053826097 0.13208777
0.14587507 -0.03492287 -0.11603309 -0.14397755 0.16299479 0.22219332 -0.24737917 -0.21087022

actorMLP.6.bias f4 [2]
00000000: f083 0e3e b7d0 633d
0.13917518 0.055618968

actorMLP.6.weight f4 [2, 10]
00000000: 02c2 733e cbb3 92be b929 3fbd 3a1d b9bd
00000010: 539c 7b3e 8ff6 8ebe 40bb 903e 2395 bf3e
00000020: 2948 403e 7aa0 1cbe 296f 52bd 5084 9b3d
00000030: 3b63 a2bd b40b e33b c5a2 0fbe 7554 27be
00000040: 4633 96bc 04e7 d7bd 8029 b4bd 444c 0bbe
0.23804477 -0.28652796 -0.04667065 -0.09038778 0.24571352 -0.27922484 0.2826786 0.3741847
0.18777527 -0.15295592 -0.05137554 0.07593596 -0.07929083 0.0069288854 -0.14026935 -0.16340812
-0.018334996 -0.105421096 -0.08796978 -0.13603312

actorOut.0.bias f4 [2]
00000000: 56d7 07bf cb8a f03e
-0.5306295 0.4698089

actorOut.0.weight f4 [2, 4]
00000000: ae79 f4bd 812c 953d e139 ef3d 779b f4bd
00000010: 1663 1dbd db2d 623c df62 353f 367c 753c
-0.11937271 0.07283879 0.116809614 -0.11943715 -0.038424574 0.013804878 0.7085399 0.0149832275

actor_cnn.0.bias f4 [32]
00000000: 4d36 f7bb ce66 83bc 35d3 5dbb 1a09 93bc
00000010: 23d8 9fbb 3c1d ac3b fe2c 2239 b1f6 e5bc
00000020: d7cb f9bc 420e 89bc 1322 e3bc 9482 cabc
00000030: f7af 2f3b 6b0b a6bb 0730 833b bef5 81bc
00000040: 9a77 5fbc b740 11bc c988 a63b 4176 b3bc
00000050: 0a0a 903b b9d8 a2bc fdd8 a3bb 02cb 37bc
00000060: 8174 b8ba 7493 8abc 931b 5cbc f3a4 11bd
00000070: 4896 a339 a798 cabc a308 abba 6004 88bb
-0.007544315 -0.016040232 -0.0033847813 -0.017948676 -0.0048780604 0.0052525084 0.00015466285 -0.028071733
-0.030492706 -0.016730431 -0.027726209 -0.024720468 0.0026807764 -0.005067279 0.004003528 -0.01586425
-0.013639355 -0.008865527 0.005082224 -0.021906974 0.004395728 -0.019878732 -0.0050002323 -0.011217834
-0.0014072807 -0.016916014 -0.013434309 -0.0355577 0.0003120175 -0.024730993 -0.0013048839 -0.004150912

actor_cnn.0.weight f4 [32, 3, 8, 8]
00000000: f51d 95bd 950b 56bd 66ff 0fbd d1ed 01bd
00000010: ae45 3fbd 6cc7 7dbd f2d5 28bd e991 ca3c
00000020: fc30 85bd d39b 08bd aeb1 ecbc dc81 94bd
00000030: 4322 23bd 8984 a8bc 1d9e 83bd 83f1 0b3b
00000040: 8279 80bd a33a 4f3c 8feb 42bd f9f1 cb3c
00000050: d6a7 623b 7fef 3fbd c188 3d3a 1148 c7bb
00000060: 5975 afbd f0f2 babd ab7b e73c 7940 74bd
00000070: 5cd3 6bba de06 dfbc 735e 2cbd 63fe 9abc
00000080: 019f 13bb b9d7 9a3c 6ee7 86bd 9418 793c
00000090: edb9 623b 10e8 e4b9 7fd5 b7bc 22d4 20bb
000000a0: 2f73 d6bc c53b d2bc efaa 843d 0d2b 523b
000000b0: 52d7 d23c 7eaa 23bc 4416 1ebc b13b 31bd
000000c0: 40d5 d0bc 0d1a 353b fa15 e13c 505f febb
000000d0: 88d1 cc3c 65c1 afbc c4fa 60bb aaa5 893c
000000e0: 95d7 01bd 030c 9f3b dc93 c33c 157c e5bc
000000f0: 3525 f43c 417f 003c a246 933c d3c7 59bc
00000100: f49c 14bd f18d 5e3d 20a7 d53b f732 a5bd
00000110: 0eee f7bb 7634 e0bc f70e 49bd 3f6b 32bd
00000120: b331 4ebd 6e6d 60bc 423d 15bc c738 3bbd
00000130: 095a 6ebd 7d33 d2bc f303 42bd e870 30bd
00000140: 57f8 fb3c a624 b73b af82 e9bc 26dc 9ebc
00000150: a2e2 f53a 3aa8 e4bc afc7 14bd b1a0 22bb
00000160: 498a 56bb bc85 86bb 6f1c 31bd 96d6 9fbb
00000170: 9220 2abc b5ed 45bd 9d71 e1bc 468d 85bc
00000180: 1f57 fdbc ab3f 24bc 738b a5bc ff47 12bc
00000190: 6ae7 20bc e64e c5bb 47d3 9ebd 7e8e 8bbd
000001a0: 7ba1 463b 034c a8bb 9654 e23c 1211 24bd
000001b0: e512 65bc 7113 7cbc 7957 f2bc 54bf c4bc
000001c0: dabc 80b9 bf06 173d 85f3 2d3d 312e 053d
000001d0: af6e 4a3c a9c6 babc f5c6 86bc a3c2 d7bc
000001e0: 47d6 9abb 2546 7c3c d02a 3fbd d0cc 17bd
000001f0: 05f4 e5bc fb6d 88bc 932a 15ba 6566 b9bc
00000200: baf9 a1bc a911 e13c 94d2 af38 1779 c43b
00000210: e7f9 e63a 823b 89bd cfec 1d3c f996 8abc
00000220: 14f5 d5ba ea99 303c 46e9 f03c 4c79 aebc
00000230: 5eab 733d 4610 34bd 65e1 5b3c f5f8 9cba
00000240: 260d 273d 80e8 45bb 17f8 f63b c4fa 133a
00000250: acaf 1dbd 1f8f 3e3d 75b7 543c 1d14 a6bc
00000260: 8434 33bb 45f5 423a 49aa 193d dd9c e0bc
00000270: 752e 333d 44a0 9e3a 2558 503d 7542 acbc
00000280: 9e37 333c 7ddb 243c eb5f 4b3b 7d5f 003c
00000290: 4ab8 88bb 1dcc 1a3d 74f8 263b 9258 243c
000002a0: 97df 61bd 380b 1a3d 98b3 94bc d31a 3bbc
000002b0: 0257 8abd b19b dabc d4fc 23bd 1948 ba3c
000002c0: 4931 dbbc 97b2 68bc c531 bd3b 99b7 1bbc
000002d0: 7fb8 bcbb d0b3 2cbd e246 083c 1f82 90bc
000002e0: a159 ae3c 0b77 ce3c fb1b 0b3c 6bd8 b43c
000002f0: 241c acbc a3d2 5dbc 30fc f4ba c597 153c
00000300: be9a b63c 925c f13b 40e7 5abd 703c 70bd
00000310: 7300 1c3d 8035 15bc bec6 103d a2a5 413d
00000320: a5d6 03bc c825 a4bc ff45 edbd 4759 52bd
00000330: 8f95 17bd ab36 80bb 3339 20bd efd4 a8bb
00000340: 3b4e e8bc 0cb3 ba3c a857 843a 0b8f ccbb
00000350: f69d 04bd b54d 533d 0750 e0bb 95b3 89bd
00000360: f1df f4bd d1c7 24bd 176d aebc b217 383d
00000370: acfc ae3d 642f a33b 8950 f03b a3fe 493d
00000380: b1bc af3c fd4f fb3b e311 d43b 83e0 913c
00000390: 2c28 923c 7614 febc a817 ceba 4e51 77bb
000003a0: 8f2e 0abd 1402 8b3c ff89 e0bb 7144 613c
000003b0: 1486 f63c 1402 753d ca7a 793d ce3d 9b3d
000003c0: 2342 91bc 465d f73c 76dd d3bc a355 34bd
000003d0: d2ff a53c 134a b5bc 7121 a83d b0de c8bc
000003e0: dc14 ab3c 9de0 14bd c13a febc bd64 1c3b
000003f0: 0885 633d 1fc2 993c 86ac 013d f05e 203b
-0.072811045 -0.05225714 -0.035155676 -0.03172094 -0.04669731 -0.06195776 -0.04121966 0.024727779
-0.06503484 -0.03335173 -0.028893318 -0.07251331 -0.039827596 -0.02057101 -0.06426642 0.002135367
-0.06273176 0.012648257 -0.047587927 0.024895655 0.0034584901 -0.04685926 0.0007230156 -0.006081589
-0.08567304 -0.09128368 0.028257212 -0.0596318 -0.00089960336 -0.027224954 -0.04208226 -0.01892013
-0.0022525194 0.018901693 -0.065871105 0.015203614 0.0034595684 -0.0004366045 -0.02244067 -0.0024540504
-0.02617797 -0.025663266 0.064779155 0.0032069117 0.025737438 -0.009989379 -0.009648863 -0.043269817
-0.02549231 0.0027633936 0.0274763 -0.007762827 0.025002256 -0.021454522 -0.0034329155 0.016802628
-0.031699736 0.004853727 0.023874216 -0.028013268 0.029802898 0.00784284 0.017978016 -0.013292271
-0.036282495 0.054334585 0.006520167 -0.080663614 -0.00756622 -0.027368765 -0.049086537 -0.04355931
-0.050340366 -0.013697965 -0.009108843 -0.045708444 -0.058191333 -0.025659317 -0.047367048 -0.043076426
0.030758066 0.0055890856 -0.028504698 -0.019392084 0.0018759558 -0.027912248 -0.036323246 -0.0024815018
-0.0032736233 -0.004105298 -0.043240007 -0.0048778756 -0.010383742 -0.0483224 -0.027519995 -0.016302716
-0.030925332 -0.010024945 -0.020208096 -0.008928298 -0.009820798 -0.0060213683 -0.07755142 -0.068142876
0.0030308652 -0.0051360144 0.027628224 -0.040055342 -0.013981556 -0.015385495 -0.029582726 -0.024017014
-0.00024554768 0.036871668 0.042468566 0.032514755 0.012355491 -0.022799807 -0.016452292 -0.026337927
-0.004725251 0.015397583 -0.04667169 -0.03706056 -0.02807046 -0.016654005 -0.0005690243 -0.022631833
-0.0197724 0.027474241 8.3838735e-05 0.0059958803 0.0017622084 -0.06700803 0.009638979 -0.016917692
-0.0016323649 0.0107788835 0.029408108 -0.021298073 0.0594896 -0.043960832 0.013420437 -0.001197605
0.040784024 -0.0030198395 0.007536899 0.0005644972 -0.038497612 0.04652321 0.012983193 -0.020273263
-0.0027344534 0.00074370607 0.037515912 -0.027418548 0.043745477 0.0012102206 0.05086531 -0.021027783
0.010938553 0.010062096 0.0031032513 0.007835266 -0.0041723596 0.037792314 0.002547768 0.010030882
-0.055144873 0.037608355 -0.018152043 -0.01141997 -0.06754877 -0.026685568 -0.040036038 0.022739457
-0.0267569 -0.014202735 0.0057737553 -0.009504222 -0.0057592983 -0.04216367 0.008317681 -0.017640172
0.021282973 0.025203248 0.008490558 0.022075852 -0.021009512 -0.013538989 -0.001869088 0.009130423
0.022290584 0.0073657716 -0.053443193 -0.058651388 0.038086366 -0.009106994 0.035345785 0.0472771
-0.008046781 -0.020037547 -0.11585616 -0.051354673 -0.037007865 -0.003912767 -0.03911705 -0.005152337
-0.028357616 0.022790454 0.0010096924 -0.006242638 -0.032377206 0.05158778 -0.0068454775 -0.06723706
-0.11956776 -0.040229622 -0.021292252 0.044944473 0.08544287 0.0049800146 0.0073338193 0.049315106
0.02145228 0.0076694475 0.006471859 0.01780725 0.017841421 -0.031015616 -0.0015723603 -0.003773767
-0.033735808 0.016968764 -0.006852388 0.013749228 0.03009323 0.059816435 0.060908116 0.07580148
-0.017731732 0.030195843 -0.025862437 -0.044026982 0.020263586 -0.022130048 0.082095034 -0.024520248
0.02088397 -0.03634702 -0.031033875 0.0023863756 0.05554679 0.018769322 0.03165867 0.002447065

actor_cnn.2.bias f4 [64]
00000000: 789c b73c c1d0 2c3c bab1 cf3c cb32 f4bb
00000010: 6192 f9bb b9dd 20bc 2a63 bdbb e57b c6bb
00000020: 840f 7e3c 2f18 1ebc 1995 f6bb ef99 58bc
00000030: 3214 c4bb e4a2 30bc ccc8 f2bb af6c 893a
00000040: 39d0 a63b aead 1cbc 10dc 0fbc 6488 1dbc
00000050: a490 49bc d799 2fbc e449 bcbb f9c0 d33a
00000060: ad50 6bbc 7a04 40bb 6c5d bdb7 e01c c1bb
00000070: 55ca 3e3c 6824 0b3c c7f5 24bb 5bee 0bbc
00000080: 6dbf e5bb 6db8 88bc de49 2d3b 92b8 44bc
00000090: faea 28bc ead5 49bc 9b2b a73b de80 13bc
000000a0: 4642 39bb 5b7f 8dbb b1c7 6abc e594 fbbb
000000b0: f0e3 673c c65c 7abc 9df6 86bb dd3d a3bb
000000c0: 5ac6 05bc ad2e 2cbc d8c7 6abb 40df b63c
000000d0: edbd 66bc 1036 16bc 13a1 23bc 7a96 9b3a
000000e0: 59fa 08bb 7cbb b23c fe07 36bc 90a0 60bb
000000f0: fea0 63bb 9cd5 52bb ecca e9bb bc04 c53b
0.022413477 0.010547818 0.025353301 -0.007452344 -0.0076163267 -0.009818488 -0.0057796435 -0.00605725
0.015506629 -0.0096493205 -0.007525098 -0.013220294 -0.005983853 -0.010781024 -0.0074091908 0.0010484661
0.00509074 -0.009562893 -0.008780494 -0.009615038 -0.012302551 -0.010717831 -0.005746113 0.0016155533
-0.014362496 -0.0029299543 -2.2574059e-05 -0.0058933347 0.011644919 0.008492567 -0.0025170909 -0.008540715
-0.007011345 -0.016689504 0.0026441733 -0.012006896 -0.010309929 -0.0123190675 0.0051016337 -0.009002892
-0.0028268262 -0.0043181605 -0.014329837 -0.0076776617 0.014153466 -0.015280908 -0.004118754 -0.00498174
-0.0081649665 -0.010509175 -0.0035824683 0.02232325 -0.014083368 -0.009168163 -0.009987134 0.0011870407
-0.0020901172 0.021817915 -0.011110304 -0.003427539 -0.003473341 -0.0032170778 -0.007134786 0.0060125273

actor_cnn.2.weight f4 [64, 32, 4, 4]
00000000: 8824 7abc 1db7 e939 62fe a53c bc52 b0bc
00000010: fa24 8a3d 57bf 1d3b f879 803d d668 0bbd
00000020: 1160 3f3c 6d83 803d cbf9 783d 9fc2 463d
00000030: b08b 43bb d82c 933d 93b9 e8bb 015e b63c
00000040: 8376 f8bb 9c90 8b3d 8a43 d8bc 139a 58bc
00000050: a41e aebb c346 0e3d fb74 773d 2fc7 c6bc
00000060: e231 913d 9c8c c23b 5021 603d 1e21 403c
00000070: 5a63 cebc c9c6 b03c e4dc 5abd cc53 cf3c
00000080: 15a8 fbbc ec16 28bd 56bb 283d c090 2cbd
00000090: 3ef7 8a3c 1f35 203d c3b6 1a3b 8e53 b43d
000000a0: 7f0c 33bd 9126 993d efb1 0e3c 15bd 9fbd
000000b0: ded1 643c d46b 8f3c da61 d73c 1943 ac3c
000000c0: 7ed0 443d c48a 15bd c559 0d3b 689f 8e3b
000000d0: 688e 073d f5d4 e5bb fa63 103d 7433 f13c
000000e0: 6ea4 8cbb 3a4a 3dba 5892 1abd 649f 2cbd
000000f0: d4c8 c1bc a309 943c 2277 ec3c 4119 3bbd
00000100: 5222 803d ab51 c83c cf33 f53b 75a4 c6ba
00000110: 0d48 1d3c 7167 1ebd abf7 523c e46a 973d
00000120: caa3 f0bb fb2b 993d db63 23bd 51c7 4b3d
00000130: 1a5d 9f3d 99a9 af3d d658 c93d 559a 7e3d
00000140: f174 4d3c 3b45 a43d a944 fdbc ebc8 2f3d
00000150: 8843 c63c ae29 213d 17a6 393d 7d7d fe3c
00000160: e975 ba3d 2867 243d 9f6c 223c 0105 8a3d
00000170: a01c 813c cd40 36bd 850b 613a 2efd 2c3d
00000180: 271a 8b3d 5ef2 5d3d 9f70 8fbc df03 2b3b
00000190: 278e ba3c 8c61 8a3d 0f21 eb3c 3267 4fbc
000001a0: fe9d 9a3d 6f1b 33bc 62f5 c639 2a0c 5ebc
000001b0: d6eb 48bc f5fb b73d 05be 8abb d287 dcbc
000001c0: 8e79 76bd 6a5c 113c a8b4 d03d ad01 a0bc
000001d0: 6aaf e33b 5917 433d 982e 503d 188a 78bc
000001e0: a3cb 7abc 1800 24bd 985b d0bc dd7b ba3c
000001f0: 894b e5bc 8fd2 163d 18b8 503b 463e 97bb
00000200: 612c 2abb e79a 7dbb b82f 3cbd 7a83 873c
00000210: 9b2a 603d aca2 f13b 4cfb fbba efcf eebc
00000220: c1a0 4b3d 7707 8fbd ea60 b43c a242 383d
00000230: 0d5c 2fbc 630f 1e3d 813d 0f3d f4b6 783d
00000240: 5cf2 fdbb 84cf 45bc ee1f ce39 c555 5fbc
00000250: fdf7 27bd a100 ba3c 2f24 4c3c fbae bbbb
00000260: f138 193c ecaa 233b 4ca9 6b3d 9582 a1bd
00000270: fe3f fcbb bd14 8c3b 3b3d f03b 5a1e 4dbd
00000280: cbc0 e2bd 1369 843c 855c 71bd adb4 81bd
00000290: 3be6 8d3c c5a0 383a cda0 2dba ff03 d7ba
000002a0: 7174 703b 8195 8abb 70bb 983c 9a67 90bc
000002b0: 922f 90bd 13dc 8bbd 5f29 4bbd 0957 07bd
000002c0: 57a3 52bd bd6e dabb fd6d 05bd c169 6b3d
000002d0: a507 eabc 4f52 dabc 20a0 e43c 4808 0f3d
000002e0: 7a72 0fbd 1907 11bd 638c 94bc 252b 943b
000002f0: 1f57 e0bb f94c efbc 7a5e 24bc 5132 03bd
00000300: 80d1 473d 289e 9a3b da02 c03a ef71 a53c
00000310: f9bb b23c f2d1 2e3d 307f 473c 191c 7c3d
00000320: f8c1 803d 5a02 d63d 7cfd 93bc 8aca a63d
00000330: 8322 5f3d 0fd1 603c 2532 1e3d 9894 8c3d
00000340: f3d7 cbbb 068d bb3d d26c 3b3d e925 873b
00000350: ee70 d2bc 552b 483c b7ff 0d3d d0f5 953c
00000360: c426 d93d 9396 13bb 7786 803d 877f 643c
00000370: b573 c73b 21b8 e23c 2e3d f43c 866b aa3c
00000380: d7bf aa3c af09 383d 0909 bc3d 67a4 bc3d
00000390: 0bab 543d 00bf 04bd 4b74 8e3d 05e6 123d
000003a0: 29f5 173d 3ec0 f13c 4e96 66bc 243e 68bd
000003b0: fd0d fdba 784b 913c 28a8 083d 75bb 6a3d
000003c0: 74b7 aa39 f723 043c 8d05 523b 19b2 463d
000003d0: 4609 83bc fc73 bc3c d6ba 3b3b 99ff 233d
000003e0: 11f8 61bd d208 23bd 6d7a 973d 0452 9e3d
000003f0: 5359 53bc dd1f ea3c bdab c13c 945e 9ab9
-0.015267499 0.00044577653 0.0202629 -0.021523826 0.06745334 0.0024070346 0.06273264 -0.034035526
0.011680619 0.062750675 0.060785096 0.04852545 -0.00298379 0.07186288 -0.0071022003 0.022261621
-0.007582487 0.068146914 -0.026399393 -0.013220328 -0.0053137112 0.034735452 0.060414296 -0.0242649
0.070895925 0.005937172 0.05471927 0.011726646 -0.025193859 0.021579163 -0.053433314 0.025308512
-0.030719796 -0.041037485 0.041194282 -0.04213023 0.016963597 0.03911316 0.002360747 0.08804999
-0.04371309 0.07478059 0.008709415 -0.077997364 0.013966052 0.017507471 0.026291776 0.021028088
0.048050396 -0.03650929 0.00215684 0.004352499 0.033094794 -0.007013912 0.035251595 0.02944348
-0.0042920625 -0.00072208385 -0.03773722 -0.042144194 -0.023655333 0.018071001 0.0288654 -0.04567838
0.06256546 0.024453005 0.0074829827 -0.0015155213 0.009599698 -0.03867287 0.012876431 0.07393435
-0.007343744 0.07479092 -0.03989015 0.04975063 0.077814296 0.0857727 0.09831397 0.0621589
0.012540088 0.08021017 -0.030916529 0.04291622 0.024202123 0.03934639 0.04532441 0.031065697
0.09104521 0.04013744 0.009913593 0.06739236 0.01576072 -0.044495393 0.00085847854 0.04223364
0.067920975 0.054186217 -0.017509757 0.0026094837 0.022772862 0.06756887 0.028702287 -0.012658881
0.07549666 -0.010931834 0.00037948327 -0.013552705 -0.012263259 0.08983604 -0.004234078 -0.026920233
-0.060174517 0.008872131 0.101907074 -0.01953205 0.006948401 0.047629688 0.050825685 -0.015169643
-0.01530734 -0.040039152 -0.0254343 0.02276414 -0.02799012 0.036821898 0.003184801 -0.004615578
-0.0025966393 -0.0038697065 -0.045943946 0.016542185 0.05472813 0.0073741283 -0.0019224673 -0.029151885
0.049713854 -0.06983846 0.022018868 0.04498542 -0.010703099 0.038588893 0.034970764 0.060721353
-0.0077498388 -0.012073401 0.0003931517 -0.013631289 -0.041007984 0.022705378 0.012459799 -0.0057276464
0.009351955 0.0024973704 0.0575345 -0.07886235 -0.007698058 0.004274933 0.007331518 -0.050077774
-0.110719286 0.016163385 -0.058926124 -0.06333289 0.017321697 0.00070429995 -0.00066233875 -0.0016404389
0.0036690498 -0.004229248 0.018644065 -0.017627526 -0.07040323 -0.06829085 -0.0496 -0.033041988
-0.051425304 -0.006666033 -0.032575596 0.0574739 -0.028568098 -0.026650576 0.027908385 0.034920007
-0.035021283 -0.03540716 -0.018133348 0.004521745 -0.006846323 -0.029211508 -0.010032291 -0.032030407
0.04878378 0.0047185607 0.0014649287 0.02019593 0.021818148 0.04268069 0.01217632 0.061550234
0.062869966 0.10449667 -0.018065207 0.081441 0.054476272 0.013721718 0.03862204 0.068642795
-0.0062208115 0.091577575 0.045758076 0.0041243923 -0.025688615 0.012217362 0.034667697 0.01830569
0.10603097 -0.002252017 0.06275647 0.0139464205 0.0060867914 0.02767569 0.029814329 0.020803224
0.02084343 0.04493111 0.09181411 0.09211045 0.05192093 -0.032408714 0.06955775 0.035863895
0.037099037 0.029510614 -0.014073921 -0.056699887 -0.0019306537 0.017736182 0.03336349 0.05730768
0.0003256161 0.008065215 0.0032046766 0.04850969 -0.015995633 0.023004524 0.0028645298 0.04003868
-0.055168215 -0.039803334 0.07396398 0.07730487 -0.0128997145 0.028579647 0.023641462 -0.00029443635

actor_cnn.4.bias f4 [64]
00000000: 2726 13bc 719b b6bb ee2f 13bc 1946 7a3c
00000010: c242 63ba 2e7b 3bbb 7f0e 313a 90f5 66bc
00000020: 20e8 08bc f666 4bba 79a3 5abc 7b94 03bc
00000030: cb1d 5eb8 0a12 c8bb 7009 91bb 0f9b 31bc
00000040: 2667 d03c 8a02 3cbc cb8a 1fbb 6fd2 69bb
00000050: 33b6 9e3c 8f0c e6bb e484 63bc f5c9 993c
00000060: ff35 1e3c dc16 25bc 2023 6abc cd62 8ab8
00000070: b9bf 14bc 9cb5 03bc c262 cdbb c84e 45bb
00000080: 354c afbc 64bc ce3c 5b1e d8bb d44b 6cbc
00000090: 7ae1 73bc 8b69 54bc c1ee 633c c4be 2abc
000000a0: 5315 37bc e797 e43b cac3 21bc 6eac 133c
000000b0: ba24 fabb 72ab 1bbc 595c ae3b abb7 92bc
000000c0: bda8 353b 078b 68bc a102 6dbc bf6a f7bb
000000d0: b84e cfbb b2ee 13bc d675 a0bc b6d8 2bbc
000000e0: 40d4 c9bb df04 85bc 409f 17bc e02f 35bc
000000f0: 6fd3 aa3c a8eb c23b a051 aebb 2093 dcbb
-0.008981264 -0.0055727293 -0.008983595 0.015275502 -0.00086693105 -0.0028607356 0.0006754174 -0.014096633
-0.008356124 -0.0007759178 -0.013344639 -0.008031006 -5.295667e-05 -0.006105666 -0.004426174 -0.0108401915
0.02543981 -0.011475215 -0.0024344202 -0.0035678407 0.019373989 -0.00702054 -0.013886664 0.018773058
0.009656428 -0.010076251 -0.014290601 -6.598756e-05 -0.009078913 -0.0080389045 -0.0062678764 -0.0030106772
-0.021398643 0.025236316 -0.0065954155 -0.014422376 -0.014885301 -0.0129646165 0.013911904 -0.010421459
-0.011174518 0.006976116 -0.00987334 0.009013278 -0.0076337727 -0.009501325 0.0053210673 -0.017909845
0.0027718984 -0.014193303 -0.014465959 -0.007550567 -0.0063265227 -0.009029077 -0.019587439 -0.01048868
-0.0061593354 -0.016237674 -0.009254277 -0.011058778 0.020852773 0.0059485026 -0.005319789 -0.006731406

actor_cnn.4.weight f4 [64, 64, 3, 3]
00000000: e767 44bd e41b 56bd 4ac6 bdbc 0fc6 09bd
00000010: 42a6 a8ba e8da 43ba 9854 e83b 896a f73b
00000020: fb8a 88bd ffa6 c63d 1f2b 033b 8fb8 e13a
00000030: 11b3 0c3d 6e1b 75bd ff74 9a3c dc22 69bd
00000040: 2f1f acbc 75d6 593d ad0f 5a3d 8945 1cbc
00000050: 1743 0f3d 2550 17bd 2dcc fcbc 0b75 e4bc
00000060: 7d34 f1bc e86b 423b 033e 84bd 0384 563c
00000070: 06e2 25bc b345 a5bc 746e e6bb e6f7 593d
00000080: 7e61 fabc 2297 fbbc d6eb d6bd 10a5 93bd
00000090: b05a 14bb afee 45bd 8cf8 2a3d 7a85 073a
000000a0: 64a8 a43c d2da d5bc 85d0 1abd 2e92 843c
000000b0: 23cd 88bd 64fc 0f3d b604 35bd d4ea 3cbc
000000c0: 7c94 61bd 46f5 bf3c b0af 13bd ce39 e43c
000000d0: 532e 04bc e8a1 0fbc a826 ecbc b511 2bbd
000000e0: 226b 463c 331f f53a 4fa6 4ebd 71b6 5dbd
000000f0: 1eb1 28bd a2b2 b43c f429 94bc 8342 eabc
00000100: b2a8 02bd 55b8 593d d49a 10bd 425a 103c
00000110: 8fcf 8dbd 3a47 95bc 732f 4ebd 699c d13d
00000120: b56f f73c c6e5 82bd ce0f 513d ed94 a8bc
00000130: 26f1 33bc ad24 c7bc e799 a53b efcd 9a3b
00000140: 5bb0 41bd 3386 db3c d924 9cbc 389b 103d
00000150: b181 4b3b 1020 acbd 029d 94bc 196b 48bd
00000160: 7680 49bd 6e52 ecbc 0d2f 853c ff19 d23b
00000170: 9253 7c3c b132 c43d ff5e 373d 1884 47bd
00000180: 4d70 fabc d607 f0bb 7a79 803d d6b1 4bbd
00000190: 24ff 85bd d7e5 0cbd 3b06 773b 8ae4 433d
000001a0: 50b6 30bd 8732 2fbd 8679 ac3b ca7d a6bc
000001b0: cdfa 75bd 560a 27bd cd48 2bbd 3f95 f2bc
000001c0: 4f93 6cbd 9a67 283d 2803 5f3d cfc8 c43c
000001d0: 3b2c 0fbb be95 2f3a 8f4a 28bd 826e 223c
000001e0: 8737 8a3d ad1a 973b 5477 48bd 3f9b 013d
000001f0: 98fd 203d 9f37 e0bc 6008 2b3d a969 123d
00000200: af1c 20bd 0929 94bd d3aa 82bd 82d1 1dbd
00000210: 5993 103d c16d 67bc 2ff2 be3c 4b53 1a3d
00000220: fa54 12bd 71c6 9d3c 1c05 33bd 7c2d dcbb
00000230: c3bf 653d dd7e 18bd 1ce1 79ba a3d3 023d
00000240: 3954 63bb 1a83 febc e984 f83c ac11 36bd
00000250: 20ef 25bd deeb c33c 1829 0fbb ac9a 1a3d
00000260: d997 34bd 0e4e 8e3d 0658 98bd f26f d4bd
00000270: afe2 903d 106f f83c b8f7 773d 7b95 5b3d
00000280: 010f 99bc b7e2 87bc 4b64 383d f81d 3f3d
00000290: 2e10 c1bb 755a 173c bbf4 3a3c 663a cf3c
000002a0: a927 113d 4785 1fbb 5d28 273d 8b23 603c
000002b0: 8b6a 5a3d b60d 5a3d 7956 9ebb f554 a9bb
000002c0: 2c8c 583d 0316 e63c 73a4 b63d b347 27bd
000002d0: 1a02 d6bb 57bf aa3c 87ff 393d bbf3 073d
000002e0: 27eb 84bc 91e1 eb3c 16a1 4ebc 4005 82bd
000002f0: 0f0b 613d 5c91 1fbd 2ebb 183c e9cd c8bd
00000300: af62 69bd 6949 543c 3587 c23c f331 e63c
00000310: 986d 8abd e553 c83c e674 46bd 929b 3a3d
00000320: c471 043c 7fbd cebc 4eef a2bd ce40 42bc
00000330: 3f23 aab9 c89c 3d3c c184 243d e8c5 ae39
00000340: 1c49 a6bd 6a4a 643c 7479 0bbd 6c70 4fbd
00000350: 41be c73c d452 0bbd 5eea 9cbc a53f 6a3d
00000360: 8eb9 aebc 9e80 61bd 9c42 47bd c836 c7bd
00000370: 61a7 023d dcf5 5cbd 4306 413d e786 0e3d
00000380: d63b 7b3d 081e 93bd 6c60 5bbd 544c 4dbd
00000390: 452e 35bd 4504 c6bc f34d 203b cfe0 bc3c
000003a0: ed47 443d 85cb 743d 67f8 49bc 7d9c c4bc
000003b0: 1885 a0bd 1966 18bd 9fc4 bc3b 42e2 913c
000003c0: 7499 3bbc 485c adbc 4e64 b1bc 380c 03bd
000003d0: 72c4 273d 11f2 313c 1a42 32bd 6273 bdbc
000003e0: 212b 6d3d 13a8 85bd 61b5 89bd b71e 9abd
000003f0: 410b f7bc 459d d1bc aee3 57bc d521 233d
-0.04795065 -0.052272692 -0.02316584 -0.03363615 -0.0012866932 -0.0007471279 0.0070901625 0.007550542
-0.066671334 0.09699821 0.0020014716 0.001722114 0.03435046 -0.059840612 0.018854616 -0.05691801
-0.021010963 0.053183038 0.053237606 -0.009538063 0.03497609 -0.036941666 -0.030859077 -0.027887842
-0.029443974 0.0029666368 -0.0645714 0.0130929975 -0.010124689 -0.020174837 -0.00703221 0.05321493
-0.030564066 -0.030711714 -0.10494201 -0.072092175 -0.0022637062 -0.04832333 0.04174094 0.0005169731
0.020099826 -0.026105318 -0.037796516 0.016182985 -0.06679752 0.035152808 -0.044193946 -0.011530597
-0.055073246 0.023432385 -0.03605622 0.027859595 -0.008067685 -0.008766629 -0.028827026 -0.041764934
0.012110503 0.0018701315 -0.050451573 -0.054129068 -0.041184537 0.022057835 -0.018086411 -0.028596168
-0.03189916 0.05315431 -0.035303906 0.008810582 -0.06924354 -0.01822244 -0.05033822 0.10234911
0.030204633 -0.06391482 0.051040463 -0.020578826 -0.010982787 -0.02430948 0.005053747 0.004724256
-0.047287326 0.02679739 -0.01906054 0.035304278 0.0031052644 -0.08404553 -0.018141273 -0.04893026
-0.049194776 -0.0288479 0.016257787 0.0064117904 0.015400784 0.09579981 0.04476833 -0.04870996
-0.030571127 -0.007325153 0.0627317 -0.049730144 -0.06542805 -0.03439888 0.0037692923 0.047825374
-0.043142617 -0.042772796 0.00526351 -0.020323653 -0.060053635 -0.04078134 -0.041817475 -0.029612182
-0.057757672 0.041114427 0.05444637 0.024021534 -0.0021846432 0.00066980335 -0.04108673 0.009914042
0.06748872 0.0046113343 -0.048941925 0.031642195 0.039304346 -0.027370272 0.041756034 0.035745297
-0.039089855 -0.07234389 -0.063802384 -0.03852988 0.03529677 -0.014125288 0.023308842 0.03767709
-0.03572557 0.019259663 -0.043706045 -0.0067192893 0.05609108 -0.03723036 -0.000953214 0.031940114
-0.0034687652 -0.031068373 0.030336814 -0.044450447 -0.04051125 0.023916181 -0.0021844562 0.037745163
-0.044090126 0.069484815 -0.07438664 -0.103729144 0.070744865 0.030326396 0.060538977 0.053609353
-0.018683912 -0.016587598 0.04501752 0.04665944 -0.0058918213 0.009237875 0.011410887 0.025296401
0.035438213 -0.0024340914 0.040809978 0.013680349 0.053324264 0.053235732 -0.0048320857 -0.0051675984
0.052868053 0.028086668 0.08918085 -0.040839862 -0.0065310122 0.020843191 0.045409705 0.033191424
-0.01622541 0.028794082 -0.012611648 -0.063486576 0.054942187 -0.038956985 0.009321971 -0.09804899
-0.056978878 0.0129569555 0.023746112 0.02809999 -0.067591846 0.024454067 -0.048451327 0.04555852
0.008083764 -0.025236843 -0.079558 -0.011856271 -0.00032451187 0.011573024 0.040165666 0.00033335318
-0.08119413 0.013933757 -0.034051374 -0.050644323 0.024382712 -0.034014538 -0.019154724 0.057189602
-0.021328714 -0.0550543 -0.048647508 -0.097272456 0.031897906 -0.053945407 0.047125112 0.03479662
0.06133636 -0.071834624 -0.053558752 -0.05012162 -0.04423358 -0.024171958 0.0024460524 0.023056416
0.047920156 0.059764404 -0.01232729 -0.0240004 -0.078378856 -0.037206743 0.0057607437 0.017808083
-0.01145016 -0.021162167 -0.021654274 -0.031994075 0.04095883 0.010860936 -0.04352007 -0.023126308
0.05790246 -0.06526198 -0.067240484 -0.0752539 -0.030156733 -0.025587687 -0.013176842 0.039827187

actor_cnn.7.bias f4 [2]
00000000: d649 913d 0cd2 c93d
0.07094161 0.098545164

actor_cnn.7.weight f4 [2, 7168]
00000000: e9d6 e4bd 42af 833e 1a48 0c3e e1f1 ae3c
00000010: bc03 61bc b51e 33bc 95bd 26be df4d 9cbd
00000020: a7bd d13d eb3c ef3b 0c92 1cbe 940f b03d
00000030: f6ed 62bd d596 41bd e33d cb3c bd90 38bd
00000040: 0797 493d 4272 d83c 0f0a 4c3e 47b3 efbc
00000050: 27e7 12be c2da 4e3d ea7f 513c d85e 5abd
00000060: 1b68 563d 2106 e0bd 6c66 adbd 680c b3bd
00000070: 0e85 82bd 29c2 0c3d 84a5 b73c bc60 90bd
00000080: cbc3 253d 87d0 5a3e 49ca 39bc d670 24bd
00000090: 578e bbbd 41e9 1bbe da4c fb3d 6628 adbc
000000a0: 1279 1b3e 5090 ce3d 1835 0bbd 5822 b63c
000000b0: 367a 7a3d 54d8 c33d 4920 a63d c34b 24bd
000000c0: ffdc 883d 0dbb 733d a6d7 0ebd ae9d a63d
000000d0: ecab 2fbe b201 0bbe 2907 cc3c 4865 8b3c
000000e0: a15c b03d 4c25 0a3e 043f 823d 7830 663d
000000f0: c8bd ca3d 4acc 183e e0cf ab3c 61b1 0fbe
00000100: cae9 4a3e 6dd6 5cbd ebb4 bb3d 8b8a 4c3e
00000110: 72c9 533d fbf8 8b3d ed73 f73c 0c3b cebd
00000120: 22a4 58bd d529 ed3d 8862 f83c 5772 dcbc
00000130: 7efc dfbb 3100 793e 6755 3ebd dbcf 98bd
00000140: a432 fcbd 63ad 943c a838 ec3d 033e 643e
00000150: 7332 48be 2f13 963a 5891 e93c 2f7e 96bc
00000160: 1e38 073e f90e 2b3e 04fb 00be c20d 033e
00000170: 92f8 d3bd 7b9e 3e3d 6a87 873d b677 ee3c
00000180: 8a87 85bd 8a29 6f3d 0f56 b4bd d614 b43d
00000190: c156 0abd d5d1 b83d f4ee c0bd 7e34 57bd
000001a0: c8a4 07bd 3313 d4bd c0ea 593d f304 9b3d
000001b0: 4300 203d 0178 093c 1d7f c73d c689 4d3c
000001c0: 8f3e 9dbd 9c21 14bd c47b 8dbe 8686 67bd
000001d0: 16a8 84be 16d5 6abd 608f c6bd a3db afbd
000001e0: 6b39 ebbd 881d 17bd bbbd eabc 26bd a63a
000001f0: e980 9d3d 3e83 ff3b 6f65 3d3e de50 2c3d
00000200: ea94 bcbd 02a1 d83d b1ea 183d 241e 44be
00000210: 054e a73c 2a42 713c 1399 30be a15f 163e
00000220: 7d6d 523e 7d0a 66be 18e5 a2bd dcdc 433d
00000230: 6582 f73b e594 bd3c 5a3a 3e3e dfe4 1b3d
00000240: ccb8 023e 3af2 ccbd f22e df3d d023 453d
00000250: bb2a 473d 8cd4 d4bc a648 bb3d ada6 4e3e
00000260: bc3c 6337 9db8 603d b8b2 633d 107d f03c
00000270: a790 fabc bb31 85bd 74fa 023e b1b3 243b
00000280: 5c92 86bd 1421 1bbd 1f68 98bc 11c2 953d
00000290: ad15 c8bd 4a41 42bd f1e0 e5bd 6896 513d
000002a0: b4eb 9c3c 1714 90bd ef3d b3bc c395 083e
000002b0: 8e77 803d b0ba 87bc 4ac3 ea3d ae72 1bbd
000002c0: b2c1 c4bd e7ca dbbd aea9 ff3d c017 953d
000002d0: 0577 f0bb bd8b 2bbe 777c 32bd 5eb4 e6bd
000002e0: d23d 98bc 512a 2abe 6cb7 803d f295 8b3d
000002f0: 224c eebd e18a 7cbe caa7 423d 4bb7 35bc
00000300: bb9c bebd 7637 ad3d 487c c73c b618 c93d
00000310: 2498 61bd fa3e 56be 3f90 593c 71ca 933c
00000320: 503b 013e 4fab 923c 4dc1 ddbd 4481 693d
00000330: 744e 07be f119 413d 3f8a 3dbb 5b58 193c
00000340: 92c8 003e 2365 6e3d 4ed3 0a3e 7eb3 0b3e
00000350: 9d03 a1bc 59cf 0b3e 4b2c a3bd edd1 87be
00000360: 6672 36bd 7a8c 1cbc 6d6c 643c 76e4 24be
00000370: efe8 c13c 9f54 31be 06b0 1e3e 799a 0ebe
00000380: eee2 d63b 56e6 3e3c f0c9 31bd cb7c babd
00000390: 5ca0 5c3d 8d13 143c 476b 1b3e 60d7 ccbb
000003a0: 8767 07bd 4a85 563e 42bb 8f3b 22ad 8dbc
000003b0: 71c3 4a3d 9d14 6abc c6e0 943c 6189 303d
000003c0: eea8 10be 8a6f 29bd 6e96 96bd 0b83 ce3d
000003d0: 3c1f 0b3e 641b 1bbb 81bd 9dbd a0bd e3bd
000003e0: 3388 db3d 46e8 d83d a5a8 943d bd6b f7bd
000003f0: 5a38 103d 196f eebc 8ddc 203d 4f88 ca3d
-0.11173803 0.2571965 0.1369938 0.021355571 -0.0137338005 -0.010932614 -0.16283257 -0.0763204
0.102412514 0.007300963 -0.15290087 0.08596721 -0.05540272 -0.047262985 0.024809783 -0.04505991
0.049216297 0.02642167 0.19925712 -0.02926029 -0.1434599 0.050501592 0.012786845 -0.053313106
0.052345376 -0.10938669 -0.08466801 -0.08742601 -0.063730344 0.034364853 0.022417791 -0.070497006
0.040469926 0.2136861 -0.011339732 -0.04014667 -0.091580085 -0.15225698 0.12270518 -0.021137428
0.15182903 0.10086119 -0.03398618 0.022233173 0.061151706 0.09562746 0.08111627 -0.040111315
0.06682777 0.059504557 -0.034873627 0.08135544 -0.17155427 -0.13574865 0.024905758 0.017016068
0.086114176 0.1349079 0.063596755 0.056198567 0.09899479 0.1492168 0.020973146 -0.14032508
0.19815746 -0.05391543 0.09165367 0.19974725 0.051705785 0.06834599 0.030206645 -0.10069856
-0.052890904 0.115802445 0.03032042 -0.02690999 -0.0068355193 0.2431648 -0.046468165 -0.0746152
-0.123143464 0.018149083 0.11534244 0.2228928 -0.19550495 0.0011449809 0.028511688 -0.018370716
0.13205001 0.1670493 -0.12595755 0.12798217 -0.103501454 0.046537858 0.06617625 0.029109817
-0.06519993 0.058389224 -0.08805477 0.08793037 -0.03377414 0.09024397 -0.09420577 -0.052540295
-0.033116132 -0.103552245 0.05320239 0.07569303 0.03906275 0.008390428 0.09741042 0.012545055
-0.07677948 -0.036164865 -0.27633488 -0.056524776 -0.2590949 -0.05733212 -0.09695315 -0.08586814
-0.11485561 -0.036893398 -0.028654924 0.0012721166 0.07690603 0.0077976277 0.18495725 0.04206931
-0.092080906 0.10577585 0.037333194 -0.19152123 0.020422945 0.014725247 -0.17245893 0.14684917
0.20549579 -0.22464938 -0.079538524 0.04781805 0.007553386 0.023142288 0.18576947 0.038060065
0.12765807 -0.100071386 0.10897626 0.048129857 0.048624735 -0.025980256 0.09144716 0.2018077
1.3544395e-05 0.05486356 0.05559036 0.02935651 -0.030586554 -0.06503626 0.12790853 0.0025131518
-0.065708846 -0.037873343 -0.018604336 0.07312406 -0.09769759 -0.047425546 -0.11224545 0.05116883
0.01915536 -0.07035082 -0.021880118 0.1333838 0.06272803 -0.016568512 0.1146303 -0.037951164
-0.09607257 -0.1073206 0.12483536 0.072799206 -0.007338407 -0.16752525 -0.04357573 -0.11264871
-0.018584166 -0.16617705 0.06284985 0.06815709 -0.11635615 -0.24662353 0.047523297 -0.011091064
-0.09307238 0.08457844 0.024351254 0.09819166 -0.055076733 -0.20922461 0.01327902 0.018040868
0.12620282 0.017903952 -0.10827885 0.057008043 -0.13213521 0.04714388 -0.0028921512 0.0093594445
0.12576512 0.05820192 0.13557169 0.1364269 -0.019655043 0.13653316 -0.079674326 -0.26527348
-0.044542693 -0.009554977 0.013941866 -0.16102776 0.023670642 -0.17317437 0.15496835 -0.13926114
0.006557814 0.011651596 -0.043405473 -0.091058336 0.053863868 0.009037864 0.15177642 -0.0062512606
-0.033057716 0.20949283 0.0043863365 -0.01729447 0.049502794 -0.014287141 0.018173587 0.043099765
-0.14126942 -0.041366138 -0.07352911 0.10083588 0.13586134 -0.002366745 -0.077021606 -0.111201525
0.10719337 0.10591178 0.07258729 -0.12081096 0.03520999 -0.02910571 0.039272834 0.0988928
