data/sensor/neural_nets/rlmultisense.onnx (onnx, 337370 bytes, 14 tensors)

actor_cnn.0.bias f4 [32]
00000000: 9270 82bd cbe6 42ba 83ce a43b 8708 adbd
00000010: 09e2 a1bc 6d5c 1d3c d5e7 7fbd ff91 35bd
00000020: 194a 97bc 366e 2dbd 5566 85bd 303c f7bb
00000030: 7ce5 243b fc3d d6bd 4b24 86bd 7cf5 833c
00000040: 2dd8 a6bd c957 aabd 912b 2a3c 3d1a c93c
00000050: b08c 5ebd 133c 76bd 365e 9bbd af80 d43c
00000060: d835 ad3c 00ad a1bc 935b 6ebd 5036 95bd
00000070: 88ed 303a e70b 99bc 0925 a73c fc87 f1bb
-0.06369127 -0.00074349035 0.005029501 -0.08448892 -0.019761102 0.009604556 -0.06247695 -0.044328686
-0.01846795 -0.042341433 -0.06513659 -0.0075450167 0.0025161197 -0.10461041 -0.06549891 0.016108267
-0.08146701 -0.08317525 0.010386364 0.024548644 -0.05433339 -0.060115885 -0.07586329 0.025940267
0.021143839 -0.019735813 -0.0581928 -0.0728575 0.0006749262 -0.018682433 0.020403402 -0.007370947

actor_cnn.0.weight f4 [32, 3, 8, 8]
00000000: 6cfb b2bc 2b56 debc aac7 bebd 8b03 87bd
00000010: 1238 843c 5fa1 e9bc 421f 9ebd 9209 aebd
00000020: 9d92 1ebd df8a 36bc fe8c b7bc 935d a93c
00000030: 1e74 4ebd a834 45bd ee24 d5bd a381 aabd
00000040: 1041 173c 9dc2 943c f7e0 a6bd 4734 f1bb
00000050: 5faf 99bc 7efd 923c 4efe 91ba f433 aabc
00000060: 3b34 c83c 0ffe 1abc 253b d73a 7d3a 0dbd
00000070: 4406 e0bc 617e 473c c331 febc 0053 13bd
00000080: 9451 b4bb ee71 81bc 6835 a8bd 8e6b 4fbd
00000090: 3a85 7ebd fd35 bcbc 9680 15bd 91c3 94bc
000000a0: ae4b 4c3c 6c9d e63b ee7a 60bc b928 84bc
000000b0: e6b7 76bd d69f 7f3c b0e3 64bd 5cf6 253c
000000c0: dafd c33b 2780 863c 915d 34bb 21ae 6dbc
000000d0: f870 4bbb 236b 98bc d92a f83c fcf4 8d3c
000000e0: 6cdb 583d 3fd4 703d 0ccc 373c c4f3 623d
000000f0: 8017 f5bc 3a1c 4c3d a02a 0b3b 33b7 5c3d
00000100: 7c5e 6f3b fc59 34bc f008 2cbd 9022 77bd
00000110: 5a40 b8bd 7656 cd3c 8e71 58bd 1c11 ebbd
00000120: 9273 653d 641a 09bc e9e1 bebd 0e77 d4bd
00000130: c472 b7bd 12fb 8ebc 4386 8fbd 3188 95bd
00000140: 2d94 103d 133b 683d 1dcc 833c 654e 583c
00000150: 8a20 f4bc 99f3 033d 961e 6cbc 0b05 f1bb
00000160: a455 fa3b 0824 2e3c 8867 c8bc 3bff 013d
00000170: e7e3 78bd 7ae5 d7bc f801 9dbc 58db 3fbc
00000180: 2a7c 0cbd fdc0 dcbc ea3c 21bb 9a91 a6bd
00000190: 11bd c7bd 8df0 13bd de21 e4bd d95d 75bd
000001a0: 3b0a 123d 2d59 6bbd 4a1d 58bd 95bf 35bd
000001b0: 9a50 d7bb 4a10 aebd 4153 7ebd 20f3 96bc
000001c0: 8372 6dbd 076e b6ba 9c53 adbc fefa 5a3c
000001d0: 6143 703d cdad 573d fb46 133c 2027 b3bc
000001e0: 8d68 a13d 2586 903d 20fc ff3d 90ea 5c3d
000001f0: d614 083d 908c b83c 71dd 9d3d d0ca 1b3d
00000200: 36b2 4b3d 54cb 33bd 713e babc dba2 9ebd
00000210: d859 00bd 55e2 8d3b 9672 0cbd 7ec9 05bd
00000220: 233a 9f3d f8a0 afbc e08a f0bd fbe1 47bd
00000230: 6dfa 96bd 655f 44bd c0a5 82bd ebed d2bc
00000240: e114 b63d 987e 973c 3a7f a43c 2876 503d
00000250: 3a8a d93c 2734 c83c 6e84 6dbb bae9 aa3c
00000260: 668c e73d 63dc b5bb ff59 60ba feb9 95bd
00000270: c7b5 5fbd f863 3abd 68ef a4bd ec97 33bd
00000280: 1dea d9bd fa62 96bd 12b6 efbd 2195 05be
00000290: 182f 54be b7c4 8ebd af48 f4bd 53f0 4abd
000002a0: 1eae 12bd 8e12 eebd 5480 fbbd 5ca7 e7bd
000002b0: fe2c 1fbe aa08 57be f3e3 f1bd dc50 b8bc
000002c0: 1374 a23d 297c c8bb 3dd4 ad3d 1804 2b3b
000002d0: 5d3b d2bc 8972 31bd 11f7 f83c 63bf f9bc
000002e0: 7b9d a73d cebb f23d f9ab 063e fd7f cd3d
000002f0: f38c 683d 1b82 513d e3b3 913d f583 e23d
00000300: 55d7 ddbc d07c 24bd 866c 76bc 8fe0 84bc
00000310: 12dd 42bd 8a6a 0bbd 7fbc dfbd 1c45 b6bd
00000320: 31a2 96bc 49f9 62bd c62c 20bd f943 d2bd
00000330: 6cc4 9fbd d5e0 afbd 3404 15be a1a8 abbd
00000340: d052 a93c 5713 e93c d376 3f3d f7e1 40bc
00000350: 64a0 923c 04dd eebc 2a01 81bd 92e4 8bbd
00000360: 6212 2b3d 4213 55bc f71c f2bb 5ad9 96ba
00000370: b8f5 5fbd c98b 0dbd 12f1 efba 2398 4ebd
00000380: 2110 2e3d 4347 a43c 05e4 5a3d 7f50 c23b
00000390: b13e b83c 6865 863b d037 033d 5c05 153d
000003a0: 9d8c aa3d 7831 bf3c 9ce0 9b3d 2a21 4d3d
000003b0: ef74 313d 549d ae3d f6cb 073e f6cd fa3c
000003c0: 01e7 743d 9e3d ad3b 0ba1 403d 72d7 673c
000003d0: 0955 683d fe07 b13d 8022 d13c 3319 b33a
000003e0: da77 be3d 934c 9f3d 3921 d93d bf72 a43d
000003f0: 6141 ce3d 647b a43d b038 263d 9a31 3a3d
-0.021848403 -0.027140697 -0.09315427 -0.06592473 0.016140018 -0.02851933 -0.07720806 -0.08497919
-0.03871404 -0.011141508 -0.022406098 0.020674502 -0.050403707 -0.04814592 -0.104074344 -0.083255075
0.009231821 0.018159205 -0.081483774 -0.0073609683 -0.018760381 0.01794314 -0.0011138411 -0.020776726
0.024438968 -0.009459986 0.0016420825 -0.034479607 -0.027346738 0.012176127 -0.031029588 -0.035967827
-0.005502889 -0.015801396 -0.082133114 -0.05063968 -0.062138774 -0.022974962 -0.036499582 -0.01815966
0.012469215 0.007037809 -0.013701184 -0.0161327 -0.060233973 0.015602073 -0.055881202 0.010129537
0.005981189 0.01641853 -0.002752159 -0.014506848 -0.0031042676 -0.018605774 0.030293869 0.017328732
0.052943632 0.058796164 0.011218082 0.055408254 -0.029918432 0.049831606 0.0021235123 0.05388565
0.0036524823 -0.011007782 -0.04200071 -0.060335696 -0.08996649 0.025065642 -0.05284267 -0.11477873
0.05601842 -0.008368108 -0.09320433 -0.103742704 -0.08957437 -0.017453704 -0.0700803 -0.07301367
0.03529756 0.056696963 0.01608854 0.013202284 -0.029800672 0.032214735 -0.014411589 -0.0073553375
0.0076396037 0.010628708 -0.02446343 0.031737547 -0.06076422 -0.02635454 -0.019165978 -0.0117100105
-0.0342981 -0.026947493 -0.0024602958 -0.0813324 -0.097528584 -0.03611808 -0.11139272 -0.059903953
0.035654288 -0.05745809 -0.052762307 -0.04437216 -0.0065708878 -0.08499201 -0.062091116 -0.018426478
-0.057970535 -0.0013918289 -0.021158032 0.013365505 0.058658008 0.052655984 0.008989091 -0.021869242
0.078812696 0.07056836 0.12499261 0.053934634 0.033222996 0.022527963 0.07708252 0.038035214
0.049730502 -0.04389508 -0.022734853 -0.07745906 -0.03133568 0.0043299594 -0.034288965 -0.03266286
0.077747606 -0.02143906 -0.11745238 -0.048799496 -0.07371984 -0.047942538 -0.063792706 -0.025748214
0.08890701 0.018492982 0.020080198 0.050893933 0.02655517 0.02443893 -0.0036242264 0.020863403
0.11306076 -0.005549954 -0.00085583323 -0.07310866 -0.054616716 -0.045505494 -0.080534756 -0.043846056
-0.10640357 -0.07343097 -0.11704649 -0.1304517 -0.2072109 -0.06971114 -0.11927926 -0.049545597
-0.035810582 -0.11624633 -0.12280336 -0.11311218 -0.15544507 -0.20999399 -0.11811056 -0.022499494
0.07932296 -0.0061183167 0.08487747 0.002609497 -0.025663072 -0.04332212 0.030391248 -0.030486768
0.08184334 0.11852227 0.1315154 0.100341775 0.056775045 0.05114947 0.07114389 0.11060325
-0.027080217 -0.040158093 -0.015040522 -0.01622036 -0.04757411 -0.03403715 -0.10924625 -0.088999
-0.018387886 -0.055413518 -0.0391052 -0.10266871 -0.078011364 -0.08587805 -0.14552385 -0.08381773
0.02066937 0.028451605 0.04674418 -0.011772624 0.017898746 -0.029158123 -0.0629905 -0.06830706
0.041765578 -0.01300508 -0.007388707 -0.0011508868 -0.054677695 -0.034557138 -0.0018306097 -0.050438058
0.04249585 0.020053511 0.053440113 0.005930006 0.022490831 0.004101444 0.03203565 0.036382064
0.08327601 0.023339018 0.076112 0.050080456 0.043324407 0.08526102 0.13261399 0.030615788
0.059790615 0.0052868864 0.047028583 0.014150487 0.05672172 0.086441025 0.025529146 0.0013664126
0.093002036 0.07778277 0.1060204 0.080296986 0.10071064 0.080313474 0.040581405 0.04545746

actor_cnn.2.bias f4 [64]
00000000: a5af d33c e7a0 e9bc 0b62 f7bc d484 f6bc
00000010: a9d5 093b 9fb5 183c 8635 30bd cad7 57bd
00000020: 94e1 b6bc 0c1a 25bd 466a 6d3c 2a48 46bc
00000030: 52fc ce3c ee55 7cbc d900 fe3a f19b 3fbd
00000040: eee1 ddbc 3ada 50bd 2237 89bd 93a5 043c
00000050: 4b9f 36bd 29e3 debc fbc1 523c a4e7 19bc
00000060: c64e babc 418e dc3b 0752 44bd 32bf 06bd
00000070: 2ecd 25bd e35a a6ba e37e 2dbc a369 b3bc
00000080: 63d9 263c 9aea f63c bef6 2fbc 2e26 3abb
00000090: 8a14 8bbc cef8 c0bc a0ac e9bb fcb8 e33b
000000a0: f835 3fbb 3d29 d0bc 91e7 9bbc 682e a8bc
000000b0: 35b0 7abd d76e b7bc 282d 93bc 36bb 143d
000000c0: 671b b6bb 20ed 0bbd 2653 133b 1913 9a3c
000000d0: 5c91 05bd ad2a 77b9 7888 43bc b1fd 83bd
000000e0: 89d1 c5bb 0c2a 0bbd 99b1 0c3c 0ee9 30bc
000000f0: 40a7 92bc a247 3cbc f65c 40bb f899 8b3c
0.02584059 -0.028519107 -0.030198118 -0.030092634 0.0021031892 0.009320646 -0.043019794 -0.052696027
-0.02232436 -0.040308043 0.01449067 -0.012102166 0.0252668 -0.015401347 0.0019378915 -0.046779577
-0.02708527 -0.050989367 -0.06699969 0.008096117 -0.044585507 -0.027207928 0.012863631 -0.009393606
-0.02274264 0.006730825 -0.04792979 -0.03289718 -0.040478878 -0.0012691881 -0.010589334 -0.021900957
0.010183665 0.030141164 -0.01073998 -0.0028404105 -0.016977567 -0.02355614 -0.007131174 0.006949542
-0.0029176455 -0.025410289 -0.019031318 -0.02052994 -0.0612032 -0.02239172 -0.017965868 0.03631135
-0.005557466 -0.034161687 0.002247998 0.018807935 -0.03260933 -0.00023571654 -0.011934392 -0.06444872
-0.0060369414 -0.033975646 0.008587264 -0.010797752 -0.017902017 -0.011491688 -0.0029352284 0.017041191

actor_cnn.2.weight f4 [64, 32, 4, 4]
00000000: 259a d93c d364 c5bc eca4 bfbd 4598 f5bd
00000010: dcbd d43c 91ff 9b3d d219 82bd dc8b 6bbc
00000020: ee77 733d 7ede 5fbc 1d3b b7bd 9b90 a33c
00000030: f149 9c3d 2f94 e53d b564 813c 924c 7fbd
00000040: 4871 ae3d 13f3 bdbb 492f 933d 4d00 423d
00000050: 4961 9dbc d0c2 40bd 69db 29be 17e0 73bd
00000060: 6e9b de3b 7155 92bd 76e9 48bd 4155 39bd
00000070: 1ec1 be3c 285a b83c 3b16 86bb 4045 ccbb
00000080: 4f9a 2e3d 3d2c dcbc 177e 9e3d 3ecf 6f3c
00000090: fdff ad3d 00af dabc ca52 2e3d 4a6e c53d
000000a0: d65e d0bb f5cf af3c bf89 333c a9c2 d13c
000000b0: e6af 963c f4de a73c 2f59 49bc eea3 ed3c
000000c0: 38df 463c 1cac bcbb d595 debd 8aa6 90bd
000000d0: 877c c13d 2515 6cbd 7975 11bd b73b 36bd
000000e0: f909 ca3c 1132 093d 29ac 803c 1430 47bd
000000f0: 2f95 b13d c844 b83b 9e60 623d 7d92 fb3c
00000100: cc15 87bc 0b19 b13d 64c4 b0bd d99b d93b
00000110: 9194 ba3d 704b cb3d fa69 40bd 3f9e e2bc
00000120: d017 9b3d 89eb 3a3d a46d 6ebc 6a48 76bd
00000130: 4224 c23d 9623 613d 04f5 473b 307c 94bb
00000140: 0de7 78bc 33c7 66bc 94c3 1cbe e1db bcbd
00000150: 0520 a93b 4698 d63d cdee 97bd 4b0f 0abc
00000160: ff15 d2bc 0134 583d 6cfa d5bd 9e46 69bd
00000170: 5ef7 35bb 099c 523d d77f c03c 7fd5 b0bc
00000180: 8078 a6bc 7869 763d ab73 2abd 88d5 86bd
00000190: 8382 6f3d 755a 2e3c 4fce 0bbe c904 36bd
000001a0: d612 c13c e52c cf3c 9bda b8bd 5802 e4bc
000001b0: 321e a6ba aa52 3ebb 0596 ddbc 4f80 d13d
000001c0: edf4 c13d a354 90bd 2a5a 17be 3cce 4ebd
000001d0: 233a 1a3d df8f 2cbd d6f4 dfbd 5a9c 1f3d
000001e0: c5e1 a03c 8f76 0f3c c835 e0bc 6cd5 52bb
000001f0: ecd6 113d f52f 903b 4d2f b7bd 0750 b53c
00000200: 4fed 233e db09 7d3d e323 b93d 202e b33d
00000210: 1834 0dbe 2099 3fbd 1982 8dbd cb28 f0bd
00000220: f33b b13d 10af 863d 3e70 92bd 89f0 d7bd
00000230: f188 7ebd d314 1abd e6fe cbbc e2b1 debd
00000240: b781 593d 2f77 5d3c 12e0 08be 94d3 d5bd
00000250: fcc7 3f3d c7a2 d23c 405c 843c 0cdc 24bd
00000260: a2c9 31bc aa18 ca3c 4158 0c3d 6d8c c33c
00000270: 457a 5f3d 6d4f 8e3d f73b 613d 49cb 68bb
00000280: 3406 323d 908d 07bd 61fb 313d 434c 53bc
00000290: f208 943d 9a1e 18be 6cea 8d3d 48e3 a53c
000002a0: 260e b23c 794c eabd 6336 f9bc b8f0 8b3b
000002b0: 6f28 0c3d 5f3a 203d 0245 1ebd d394 a73d
000002c0: 9f93 d5bd 18db 403c 81a2 f43b f649 2dbd
000002d0: f619 153d 6f3d 963d 03c6 093e 2c42 af3c
000002e0: a52e b5bc e928 943b 572c 333d 9612 df3c
000002f0: 096c c23c e71a f5bb 8d7f d9bd c1d7 233d
00000300: d754 efbb 280a a43d 6f96 d03d 4e0e 9f3d
00000310: 2f01 163d a05a 963d a4c3 1ebc c548 56bd
00000320: 5a30 acbb 4cf1 4a3d 3f77 31bd c99f 13bd
00000330: e535 87bc 0bea 2f3b 675b beba 5ae2 5abd
00000340: 29d5 3b3d 7b99 383d 31bc 363d fbd0 2bbd
00000350: 9c88 d1bb efd2 9a3d 9c89 8fbd 86b8 4c3c
00000360: 943e 0c3d 213b 7b3c 55ba e73c ba8e f83c
00000370: 2792 693d 66e4 193c 4161 f23c 844b 493d
00000380: 2d2c 4ebb 8f8a 1fbb fd09 a0bb 824d 1dbe
00000390: b04d f53d 68f0 493d cca3 91bd 0e53 e13b
000003a0: 97cd 923c 37d0 0dbd 04e1 0ebd 5b35 18bd
000003b0: 0f1f 263d fb22 db3c 8191 bbbc dc1b ac3d
000003c0: bca6 933c 7260 10bd 9529 d63c 7a38 f33c
000003d0: c4e2 ec3d ab4b 703d 777d 42bd 9b91 aabc
000003e0: d1ef 83bc 3644 81bc 1135 f83c 516d 593c
000003f0: 3244 0b3d 2c7f dfbc 4e1c 70bd 6b26 34bd
0.02656276 -0.024095928 -0.09357628 -0.11991934 0.025969438 0.07617105 -0.06352581 -0.014376607
0.059440546 -0.013663886 -0.08946822 0.019966414 0.07631291 0.112099044 0.015795091 -0.062328883
0.085177004 -0.005796799 0.07186753 0.047363568 -0.019211428 -0.047060788 -0.16587605 -0.05953988
0.006793431 -0.07145203 -0.04905077 -0.04524732 0.023285445 0.022503927 -0.0040920055 -0.006233841
0.04262763 -0.026876563 0.077388935 0.014636813 0.084960915 -0.026694775 0.042559423 0.096401766
-0.0063589616 0.021461466 0.010958134 0.025605517 0.018394422 0.020492055 -0.012289329 0.029008832
0.01213818 -0.0057578217 -0.10868422 -0.07063015 0.0944758 -0.057637352 -0.03551242 -0.044490542
0.024662958 0.033495013 0.015707092 -0.048629835 0.08671033 0.0056234337 0.055267923 0.0307095
-0.016489886 0.08647355 -0.086312085 0.006640893 0.09110368 0.09926498 -0.046976067 -0.027663348
0.07572901 0.04563478 -0.014552508 -0.060127653 0.09479572 0.054965578 0.003051103 -0.004531406
-0.015191806 -0.014085579 -0.15308982 -0.09221626 0.0051612877 0.104782626 -0.074185945 -0.008426498
-0.025645254 0.05278397 -0.10448155 -0.05695211 -0.002776585 0.051418338 0.023498459 -0.021586178
-0.02032113 0.060159177 -0.041614216 -0.065836966 0.058474075 0.010641684 -0.13652919 -0.044438157
0.023568552 0.025289962 -0.09026071 -0.027833149 -0.0012673794 -0.002904097 -0.027049074 0.10229551
0.09470544 -0.07047393 -0.14780489 -0.05048965 0.0376531 -0.042129394 -0.109353706 0.038967468
0.019638905 0.008756294 -0.027369395 -0.0032170666 0.035605356 0.004400248 -0.08944569 0.022132887
0.16008495 0.061776977 0.09040048 0.08749032 -0.13789403 -0.04677689 -0.0690958 -0.11726531
0.086540125 0.06576359 -0.07150315 -0.10543925 -0.062142316 -0.037617516 -0.024901818 -0.10873772
0.05310222 0.013517185 -0.13366726 -0.10440746 0.04682158 0.025712384 0.01615727 -0.040248916
-0.010851296 0.024669964 0.034263853 0.023870671 0.054559965 0.06948743 0.054988828 -0.0035521558
0.043462947 -0.03309399 0.043452624 -0.0128966 0.07228269 -0.14855424 0.06929478 0.020249978
0.021735262 -0.11440367 -0.030421441 0.0042706393 0.034218248 0.039118167 -0.03864003 0.08182683
-0.10428547 0.011770986 0.007465661 -0.042306863 0.03640171 0.07335936 0.13454442 0.021393858
-0.022116968 0.0045214784 0.043743458 0.027230542 0.023733156 -0.0074800136 -0.106200315 0.04000068
-0.007303815 0.0800975 0.10184943 0.077664 0.036622223 0.07341504 -0.009690199 -0.052315492
-0.0052547874 0.049546525 -0.043326613 -0.036041055 -0.016505191 0.0026842381 -0.001452309 -0.053438522
0.045857582 0.045068245 0.044613067 -0.041947346 -0.006394459 0.07559764 -0.07008669 0.012495166
0.034239367 0.015333922 0.028287092 0.030341495 0.057024147 0.009392833 0.02958739 0.049144283
-0.0031459436 -0.0024344062 -0.004884003 -0.15361598 0.11977708 0.049301535 -0.0711132 0.006876356
0.017920299 -0.034622397 -0.03488256 -0.03716026 0.040556964 0.026750078 -0.02289653 0.08403751
0.018023841 -0.035248227 0.026142875 0.029690016 0.115666896 0.058665913 -0.047482934 -0.020821383
-0.016105564 -0.015779596 0.030298742 0.013270692 0.034000583 -0.02728232 -0.058620743 -0.04398195

actor_cnn.4.bias f4 [64]
00000000: cef2 2ebc af7f 32bc 760f 0ebd 0886 5bbc
00000010: 893f 2dbb 4b44 253b 3d82 2ebc 15d8 c6ba
00000020: ab13 a5bc d372 363c 720c fcba b7ea f5bc
00000030: 8acf a3bc a968 00bc 8bf6 b7bc ecfb 24bc
00000040: d8a7 84bd b6b2 b4bc abe1 c0bc 0c0c 353a
00000050: 3d44 11bd d3e0 0d3c 9087 25bd 7465 3bbd
00000060: 6a6d 543c eb58 40bd cfcb 25bc f59e 9bbb
00000070: dcea 9bbb 1b22 c4bb 03ba cfbb fa00 c8bc
00000080: 6160 71bc 83ad c93b 3a3f a638 9120 d63b
00000090: e827 f0bb 6a7f c3bc 13dc 033c c14c 37bc
000000a0: a94c bdbc 23c8 8d3c 3ae2 ccbc 618a 1abb
000000b0: 90a1 94bb e777 54bc 8cfa bdbb aeae b6bc
000000c0: e0ba 08bd 4f11 dd3b c854 2db7 8c40 89bc
000000d0: 487e d5bb faa0 43bc dc71 a6bb e5cc 14bc
000000e0: 9f8a 80bd cffd a3ba cdea dbbc cc20 853c
000000f0: 1e24 a9bc 650e 10bd 8766 28bd 59a2 fdbc
-0.010678006 -0.0108947 -0.034682713 -0.013398655 -0.0026435575 0.0025217708 -0.010651168 -0.0015170599
-0.02015098 0.011135775 -0.0019229783 -0.030019147 -0.019996423 -0.007837453 -0.022456428 -0.0100698285
-0.06477326 -0.022057872 -0.023545107 0.0006906397 -0.035465468 0.008659559 -0.040412486 -0.04575105
0.0129655395 -0.0469598 -0.010119393 -0.0047491738 -0.004758222 -0.005985511 -0.006339313 -0.024414528
-0.014732451 0.0061547174 7.927274e-05 0.006534644 -0.007328976 -0.023864467 0.008048075 -0.011187733
-0.023107843 0.017307347 -0.025010217 -0.0023581015 -0.0045358613 -0.01296804 -0.00579769 -0.02230009
-0.033381343 0.006746448 -1.0331343e-05 -0.016754411 -0.006515298 -0.011940235 -0.005079491 -0.009082054
-0.0627644 -0.0012511554 -0.02684536 0.01625099 -0.020647105 -0.035169978 -0.041113403 -0.030961202

actor_cnn.4.weight f4 [64, 64, 3, 3]
00000000: 55d0 cc3c b18d 28be 6825 28bb 719a f4bc
00000010: a9f6 9bbd 9486 86be b1a1 423c 0c07 cdbc
00000020: de65 95bd 9dca 2e3d 3b2b 9b3d 7a22 6cbd
00000030: d77d 833d 764c ab3d 1954 a1bd 6788 8b3b
00000040: b50a 0a3d 44c4 92bd b4e4 503d 66ef 663d
00000050: 5233 163d 5ff4 193d 82d8 51bd c329 b63d
00000060: 8826 11be b18e 7e3d 8d27 d63d b761 023e
00000070: 5cd5 d53c 00db 06bd cb81 99bd cde5 613d
00000080: 5fd2 493b b348 6abd f3fb dfbc 37b7 cb3c
00000090: 0ca5 1d3d 4a38 ebbc 268a 81bd 2c12 a73c
000000a0: e183 00bb dac6 67bd e9bf 8e3c 1211 5d3d
000000b0: fcfc 87bd a764 db3d db2f b53c 3616 15bc
000000c0: 90a5 003d a1a4 463c 70cc be3d 35ef 5dbb
000000d0: 70aa dc3c ed06 0f3d 2913 0f3d 697f 813d
000000e0: 44ab c638 01f6 e1bd 3435 99bd 1857 933d
000000f0: e290 13bc 4b06 9dbd 9004 a2bd 3fb6 c73b
00000100: 5d48 963d 0dfa 583d edb3 98bc a36e 0e3d
00000110: ef16 883d d12b 043d 1dc3 253d 8580 0abd
00000120: 0bb9 183e 7ebc bebd e77a fe3d 1f8b 5a3d
00000130: 6f65 b0bb 7dfb c53d acf7 e5bc d17f f13c
00000140: 8784 023e 3674 91bd 3629 82bd 72b0 af3c
00000150: f794 813c 42ff 413d 3ffb 57bd 2f14 dbbc
00000160: a4fa 02bd 26f0 09bd b0b9 033c 0158 7e3c
00000170: 784e 8cbc 600c 0ebd 8b9d 5dbd 2fba 94bd
00000180: 1c9a 3fbd a38e 4f3d 6115 96bd b3d1 923d
00000190: 76cd 233c 9651 fc3b dedf 543c 11bb 8f3d
000001a0: 59d5 38bd d30f a2bd be9c 6c3d cecd 3c3b
000001b0: 9b75 9a3c 317c 5abd db10 84bd 40c8 6dbd
000001c0: 9318 173d 709e 07be 2fef ad3b 105e b63d
000001d0: da81 43bd 6bfb 913d e69e c63d c2b4 063d
000001e0: 2710 e5bc 7a3d 1bbd 2783 d4bd 2e80 a73c
000001f0: 6409 083d 0965 0a3c 2138 a63d a0e1 27bd
00000200: 718a a3bd 8562 7dbd 80e9 fdbc 215a 5c3c
00000210: 604a b3bc ea45 2c3d 234c 013c 7ecf 863d
00000220: 677a fc3c bce0 ea3c 85b8 463d 45a6 463d
00000230: 73ce e33d 7e24 14bc 1367 06bd 4fa0 a83a
00000240: 33b0 92bd 1efa 133d a551 943d 3863 d0bd
00000250: b203 fd3c fd9b 8a3d d930 66be 28a7 9ebd
00000260: eab2 b63d f8da c03d 4dd0 8c3d 1017 063d
00000270: 3cd6 34bc cf17 e23b ef14 553c 4050 1abd
00000280: e836 743d f2f8 f13d 9fd8 8bbd 2e52 a4bd
00000290: b153 653d a479 a23d f4e3 f43c 4287 913d
000002a0: 1fce 4f3d a628 5cbc ec79 0d3a 279b 243a
000002b0: 78e1 a23c 5ea5 f43b 5c5a e4ba b8e8 27bd
000002c0: 9741 14be 03fe 7b3c 8d63 d3bd a077 52bd
000002d0: 1a09 30bd eaa5 a73b 507d 64bd a640 1abd
000002e0: aec7 983d e4f7 3cbd 15cf 0d3d 84a6 d3bc
000002f0: 277d 9fbd d4d0 a13d 0583 b43d 29ae 90bc
00000300: a2d3 fa3a 57a4 173e 3650 9abd d917 113c
00000310: 4399 db3d 6618 1ebd 73cf 693d 54e7 95bc
00000320: 5ad8 64bd f838 98bd 0245 c0bd 4b07 9fbd
00000330: 98ab 97bd 6fc2 d63c f4e7 cb3d 31ea c23d
00000340: fd34 90bd 58cc c83b 481a 533d 5060 92bd
00000350: 9984 3b3d cb13 9d3a 18e9 91bd c9a5 e33c
00000360: c83f d0bd bf08 88bd 0c32 17bd 0d50 2fbd
00000370: a4de 73bd 3168 a83d 8880 74bd 1aea 8cbd
00000380: 59b5 d73d 8fc3 d7bc b558 d53d e03b bebd
00000390: e900 b5bc 8603 443d 129b 4ebd 7e73 de3b
000003a0: 5a8e 91bc 923f acbd f15a 113c 6744 273d
000003b0: 1b7a 1a3d 9a57 ee3c e082 d0bc b5e0 8b3d
000003c0: 5e33 1bbd f4c1 8aba 3c94 293d e04e e2bc
000003d0: 1d2a 843b 5160 c13c 632e ee3c bdf6 d83d
000003e0: c45f f5bc b2f2 913c 4a8c 8c3d fa42 06bd
000003f0: bd72 1e3d 1103 973d 548a 76bd 0d9b dbbc
0.025001684 -0.16460301 -0.0025657061 -0.0298588 -0.07615406 -0.2627455 0.011879371 -0.025027774
-0.0729482 0.042673696 0.07576605 -0.057650067 0.064204864 0.08364193 -0.078773685 0.004258204
0.033701617 -0.07166341 0.05099936 0.056380652 0.036670037 0.037586566 -0.05123187 0.08894684
-0.14174855 0.0621478 0.104567625 0.12732588 0.026102714 -0.0329237 -0.07495459 0.055150796
0.0030795557 -0.057198238 -0.027341818 0.024867637 0.03848748 -0.028713364 -0.06325178 0.020394407
-0.0019609856 -0.056586124 0.017425494 0.053971358 -0.0664005 0.10712557 0.022117546 -0.009099534
0.031407893 0.0121242115 0.09316337 -0.0033864502 0.02693674 0.034918714 0.034930382 0.0632313
9.4732764e-05 -0.1103325 -0.07480851 0.07194346 -0.009006711 -0.07667216 -0.079110265 0.0060947235
0.07338021 0.052972842 -0.018640483 0.03477348 0.06644999 0.03226835 0.040469278 -0.033813972
0.14914338 -0.09313296 0.124257855 0.053355332 -0.0053831856 0.09667108 -0.0280722 0.029479893
0.12745868 -0.071022436 -0.063555166 0.02144644 0.015818102 0.047362573 -0.05272984 -0.026743023
-0.03197731 -0.03367629 0.008039877 0.015523911 -0.01712726 -0.03467977 -0.054105323 -0.07262074
-0.04677783 0.05067314 -0.073282965 0.07168903 0.009997716 0.0077001555 0.012992827 0.07018102
-0.04512534 -0.079131745 0.05776667 0.0028809193 0.018854907 -0.053341094 -0.064485274 -0.0580523
0.03688867 -0.13244033 0.005308054 0.0890466 -0.047731258 0.07128032 0.09698276 0.032887228
-0.027961804 -0.037900425 -0.10376578 0.020446863 0.03321208 0.00844694 0.081161745 -0.040986657
-0.0798539 -0.061861534 -0.03099513 0.013449223 -0.02188605 0.042058863 0.007891688 0.06582545
0.030820085 0.028671615 0.048515815 0.04849841 0.111233614 -0.009041904 -0.032813143 0.0012865158
-0.071625136 0.036127202 0.07242135 -0.101751745 0.030885551 0.06768034 -0.22479571 -0.07746726
0.08920844 0.09416765 0.06875668 0.032736838 -0.011037406 0.006899811 0.013005479 -0.03767419
0.059622675 0.11815061 -0.068284266 -0.08023487 0.055988017 0.07933357 0.029893853 0.071058765
0.05073368 -0.013437426 0.0005396891 0.0006279223 0.019882903 0.0074660024 -0.0017421949 -0.040993422
-0.14478146 0.015380385 -0.10321722 -0.051383615 -0.04297743 0.005116214 -0.05578357 -0.03765931
0.07459961 -0.046134844 0.034621317 -0.025836237 -0.07787543 0.07901159 0.088140525 -0.017661171
0.0019136558 0.14808784 -0.0753483 0.008855783 0.10722592 -0.038597487 0.057082605 -0.018298782
-0.05587039 -0.07432741 -0.09388162 -0.07765063 -0.07405776 0.02621576 0.09956351 0.09517325
-0.07041357 0.0061278753 0.051538736 -0.071472764 0.04578075 0.0011984048 -0.07124537 0.027789013
-0.10168415 -0.06642293 -0.036912963 -0.04280095 -0.0595385 0.08222998 -0.05969289 -0.06880589
0.10532636 -0.026338367 0.1041731 -0.09288764 -0.02209516 0.047854923 -0.050440855 0.00678867
-0.017768074 -0.084105626 0.00887178 0.040836718 0.037714105 0.029094506 -0.025453031 0.06829969
-0.037890784 -0.0010586367 0.041401133 -0.027625501 0.0040333406 0.023605498 0.029074853 0.105939366
-0.029952891 0.017815921 0.068626955 -0.032778718 0.03868364 0.07373632 -0.060190514 -0.026807332

actor_cnn.7.bias f4 [10]
00000000: 519d ad3d 5b86 c83d c008 c73d d537 ec3d
00000010: 0fcf b63d 54b2 893d 4d84 dc3d 4374 e73d
00000020: 2c09 b83d 39f5 a33d
0.08477271 0.09791251 0.09718466 0.115340866 0.08926212 0.067234665 0.10767422 0.11301472
0.089861244 0.08005757

actor_cnn.7.weight f4 [10, 768]
00000000: 6d4d 4a3e 93ee 0b3b 15bf 3abe f298 58be
00000010: 8808 903d 05e9 1ebc 202d 8bbd e440 a63d
00000020: 49a1 f1bd cd17 c0bc 747b a73d 6f68 cc3c
00000030: 3207 ee3d 4155 2a3e fd9e 31be c680 0dbd
00000040: 37ea f43d 518b 7abd 55a4 253e e63d dc3c
00000050: 60d3 0dbd e189 71be 4ece f83d 3f52 8f3d
00000060: 2726 9fbc bbaa f5bd a7f8 e8bd e67b 863d
00000070: 36d6 b2bd 8143 0b3c 0253 ed3d e51f dd3d
00000080: c80b b4bd ed23 b8bc 7248 c7bd c3e8 a4bd
00000090: a8bc f63b 07b8 9bbd 4d7d 2cbd 3a12 b53c
000000a0: 669f d43c 5e8d d2bd 9039 08be dc71 03bd
000000b0: 36fd 463e 5540 723d fe18 0cbe dd2f 8abd
000000c0: d189 ddbd a73e 453c 1106 b1bc deab fdbd
000000d0: 14a8 3bbd 2ab0 263e b108 65bc 97de af3d
000000e0: efa7 86bc 1427 f23d b068 cb3d 4490 5b3d
000000f0: 0f2a 58bd bfbb 25b9 9dc3 08be 20ba 193d
00000100: 941f 343e 4bbf 81bd 004e cebd af15 0abe
00000110: 788c 49be f4e4 dd3d 8283 6b3d b0e4 f3bd
00000120: 6f66 743d 8eab b5bc 35a4 f2bc 8c85 ccbd
00000130: eb29 353e 4b01 3fbe d970 db3c eb29 c0bc
00000140: 498b 38bc aa96 9ebd e6d1 b43d 1fdf 0c3c
00000150: 07f3 063c 40ee 2bbe 807f 7a3d 3bf1 b3bc
00000160: 4dcb d4bb 2ff2 b33d cfa8 02be 1af6 2ebe
00000170: a771 0fbe d1d4 63bd f8f7 a2bd 1bf6 ac3c
00000180: 8678 863d 23c1 69bd 4f5c 96ba 287b 12bd
00000190: bcb3 b03d c8b9 d73a 119f 843d 4755 b13d
000001a0: 625b a3bd 0510 70bc a13e 8a3d 6068 78be
000001b0: ab33 2dbe 1f92 80bd 0dde 15bd 4d4d 0f3d
000001c0: 963f abbb e2d1 1dbe 5a76 f8bd b124 05be
000001d0: d1be 183e 475b 7f3c 435a 643d 7836 b73d
000001e0: 472f 48be 5d2f 3f3e 57d0 d53d 1058 0d3e
000001f0: 3267 59be 3fbe 2ebe e6a6 24be 059e 633e
00000200: 1458 a63a ce03 df3c 704e 1fbe cb19 973d
00000210: 6991 763d 4fe0 283d e856 1f3e 982a 153e
00000220: 2ca0 e1bd ff3d afbc f561 72bc 88a7 5ebe
00000230: fe99 a43c 2273 8fbd a6fb 333d 40cd dabc
00000240: 0a35 73bd 248b f83d 80a6 533e 1f36 d2bd
00000250: 13db 55be 34c4 133d 75aa cd3c a73b e9bc
00000260: 531c 8cbd f70a 6a3c 75cd cabd 0175 873d
00000270: b717 253d b48d 26be 85e6 e6bb 7c98 bf3d
00000280: 761b 5bbc 08b3 623d 8934 3c3d 6458 093d
00000290: 13c1 f43d 41f0 83bd d2aa 44be 6425 d53c
000002a0: 34d0 f2bc acc5 5cbd df57 7a3d 0000 143e
000002b0: 90e9 0bbd 9a08 8bbe 9f22 283d be75 573d
000002c0: ec29 113c 952a 94bc e85c 9fbd be6f 8abe
000002d0: a9f8 c6bd b64d 04be 0168 cbbd 893c ccbd
000002e0: 9f7b 123d f88b 033d 3820 5bbe 4834 37bd
000002f0: a194 803c 2101 e2bd c67d 29bb d600 8e3d
00000300: 1313 4c3e 9d54 ed3d 4d53 5dbd 069f 1cbe
00000310: aff0 fbbc b98d c23c caa3 8f3d 96d9 e3bd
00000320: 8aca 38be aee9 c3bb 04f4 2d3d 08fb 1b3d
00000330: 31a3 b7bd 5da2 f23d 5811 a53d 26f6 75be
00000340: e650 2b3e bd78 ad3d 1914 14bd 72d2 40be
00000350: 663e 58bd d7a6 1c3d c0bc 29be 7d77 b03d
00000360: 6530 e5bc 5206 a8bd 49eb dc3d 77bf 24bc
00000370: 314a e3bb 170d 4fbd 1a78 debd c0cb 1dbe
00000380: c647 0c3b 9cd2 d7bd f4e2 2f3d 20dd 24bd
00000390: 8d41 523d 64fe a9bd 99f2 6abd 373a 2abd
000003a0: 52f8 ed3c 1d3a 2dbd 81cd 6dbe 89f5 0ebd
000003b0: 1906 dd3d 40c2 213e 0bf1 99bd 6c3b 41be
000003c0: f3e4 513d 1e62 dcbc 3b44 3ebd 9ce2 143e
000003d0: a0db 66bd 43cb 143e a62d d1bd f96c e5bd
000003e0: f3f9 08be 50b3 aebd 270c 083e e4fc 27be
000003f0: 4bd6 8c3e 1a3d 083e a866 c13d 33c4 6d3c
0.19756098 0.0021351918 -0.18236955 -0.21152094 0.07032877 -0.009699111 -0.06795716 0.08117846
-0.11798341 -0.02344885 0.08177844 0.024952142 0.11622466 0.16634084 -0.17345805 -0.034546636
0.119587354 -0.06116802 0.16175969 0.026884984 -0.03462541 -0.23587753 0.121487245 0.06998109
-0.019427372 -0.11995455 -0.11375552 0.065666005 -0.08732264 0.008499981 0.11588098 0.10797099
-0.087913096 -0.022478068 -0.09730615 -0.08052208 0.007529814 -0.0760346 -0.042111684 0.022103418
0.025954913 -0.1028087 -0.13303208 -0.032091007 0.1943253 0.059143383 -0.13681409 -0.067474104
-0.10817302 0.012038863 -0.021609338 -0.12386297 -0.04581459 0.16278139 -0.013979123 0.085873775
-0.016437499 0.1182386 0.09932077 0.05360438 -0.052774485 -0.00015805567 -0.1335587 0.03753102
0.17590171 -0.06335314 -0.10073471 -0.13484834 -0.19682491 0.10834685 0.057498462 -0.11908853
0.059668 -0.02217653 -0.029619316 -0.099864095 0.17691772 -0.18652837 0.026787208 -0.023457488
-0.011263677 -0.07743581 0.088290974 0.008598118 0.008236653 -0.16790104 0.06115675 -0.021965614
-0.006493962 0.08786427 -0.12759708 -0.17086068 -0.14008199 -0.05562288 -0.079574525 0.021113446
0.06565957 -0.057068955 -0.0011471602 -0.035761982 0.086280316 0.0016458565 0.06475652 0.086588435
-0.07976414 -0.014652257 0.06750227 -0.24258566 -0.16914241 -0.062778704 -0.036588717 0.03498583
-0.005226086 -0.15412095 -0.12131949 -0.13002278 0.1491654 0.015585727 0.055750143 0.08945936
-0.19549285 0.18670411 0.10440128 0.13803124 -0.21230772 -0.1706476 -0.16079292 0.22228248
0.0012691044 0.027223494 -0.15557265 0.073779665 0.060197268 0.041229542 0.15560496 0.1456703
-0.110168785 -0.021391867 -0.014793863 -0.21743596 0.02009296 -0.07004382 0.043941163 -0.026709199
-0.059376754 0.12135914 0.20668983 -0.10264229 -0.20884351 0.036075786 0.025105694 -0.028470827
-0.0684134 0.014284841 -0.09902469 0.066141136 0.04030582 -0.16264993 -0.007046523 0.09355256
-0.013373246 0.05534652 0.04594854 0.03353156 0.119508885 -0.06442309 -0.19205788 0.026018806
-0.029640295 -0.053899452 0.061118957 0.14453125 -0.03415829 -0.27155 0.041048642 0.052602522
0.008860093 -0.018086711 -0.07781392 -0.27038378 -0.09715397 -0.1292027 -0.099319465 -0.09972484
0.035762426 0.032115906 -0.21399009 -0.044727594 0.015695872 -0.110353716 -0.002586232 0.06933753
0.19929151 0.11588404 -0.05403452 -0.15295038 -0.030754415 0.02374922 0.07013662 -0.111254856
-0.18046013 -0.0059787845 0.04246904 0.0380812 -0.08966673 0.118473746 0.08059949 -0.2401968
0.16730079 0.084702946 -0.03615198 -0.18830279 -0.052793883 0.03824505 -0.16575909 0.086165406
-0.027977178 -0.082043305 0.107870646 -0.010055414 -0.0069363345 -0.050549593 -0.10862751 -0.15409756
0.0021405085 -0.105382174 0.04294105 -0.040249944 0.051332045 -0.08300474 -0.057360265 -0.041559424
0.029049072 -0.04229175 -0.23222925 -0.03490213 0.10792179 0.15796757 -0.075166784 -0.18870324
0.051243734 -0.026902255 -0.04645179 0.1453957 -0.056361794 0.14530663 -0.10213785 -0.112024255
-0.13376598 -0.08530295 0.13285886 -0.16405064 0.27507243 0.13304558 0.09443408 0.01451211

actor_fc0.bias f4 [10]
00000000: 0a40 823d 165f 0b3e e16a f43d 6051 873d
00000010: 57f3 ed3d 6833 cf3d 3b98 da3d 8166 9d3d
00000020: 1da1 b03d 4eb1 9f3d
0.06359871 0.13610491 0.11934448 0.06607318 0.11618679 0.10117227 0.10673567 0.07685567
0.0862448 0.0779749

actor_fc0.weight f4 [10, 2]
00000000: ba28 c7bc 4c2b 513d dbad 853e c738 fabc
00000010: 33a7 8cbd 33a4 1fbd 2e15 54be 7229 363d
00000020: a9a3 1b3e 8ee5 2b3d f431 c43b 1303 b53d
00000030: b38f bf3c 1415 4bbb 7665 a2bd 743e 1b3e
00000040: 08a4 43be 2fe5 983d 63a5 c2bd 83f9 c3bc
-0.024311412 0.05106668 0.26109204 -0.030544652 -0.06867828 -0.038974952 -0.20711204 0.04447312
0.1519915 0.041966967 0.0059874 0.08838477 0.02338395 -0.0030987905 -0.079295084 0.15160543
-0.19105542 0.07465588 -0.09504201 -0.023922687

actor_fc1.bias f4 [10]
00000000: 798c c03d 8b0c c63d 77ce d63c 51d1 c53d
00000010: a63d 803d 0546 9d3d 75f1 d33d 403c e63d
00000020: 4aae 4f3d 5311 af3d
0.09401793 0.09670361 0.026221497 0.096590646 0.062617585 0.07679371 0.10348789 0.112419605
0.050703324 0.08548226

actor_fc1.weight f4 [10, 20]
00000000: 824f 713e 34ce 253e 1c33 29be d7d1 fc3d
00000010: 48a0 9a3d d311 bebd c2be 0abe 9e24 60be
00000020: c58d cbbc 68ff 413d 963b ddbd 364f 8abd
00000030: 3167 0a3e f2b5 1d3e 73a0 40be ea0d 303e
00000040: 98a3 83bd 4609 54bd 3575 2d3d 48cd 933d
00000050: 68aa 9f3e 92d9 8a3d 018c e73c 6703 46bd
00000060: 06fb 2f3d 8a7b 94bd 7145 febd d49a 133d
00000070: b819 1cbd a472 ea3c 0e69 f53c 2ff1 63bd
00000080: 0972 713d 0503 563d 18ac 233e ae12 b63c
00000090: 4c30 a3be 0453 6abd 09ee cfbd f156 4dbd
000000a0: 8690 323e ddbf b0bd a9cb e0bc 1344 17bd
000000b0: baea b2bc 6f44 153e ab51 2c3d 4a6c 8bbe
000000c0: f967 933e eb3a 293d 1357 e7bc 46db 8bbe
000000d0: 9e5f 4c3d 6b1a df3c 4d1c 7abe c071 74bd
000000e0: 18bb 5f3a 4f21 fdbd de13 9a3d 2b45 8e3d
000000f0: f09b 463c fb61 063e 54e5 a73e cf6f a8bd
00000100: 2e78 a93c f839 8d3d e91f 49bd 4206 0e3d
00000110: 6081 4f3d 985f 0cbe fae5 883e 4e59 cf3d
00000120: f1dd 0b3d 93ba 1abe 00fa e53d eeb2 ef3c
00000130: da09 5abd 703d dabc daf8 a93b 7c9b 32bc
00000140: 7e28 0bbd db4c cebd 33ab d43d a06d 2ebd
00000150: 522b bc3d 1fe5 683e 1262 a5ba 04d8 083e
00000160: f59e 8b3d b3b3 953e 2786 6dbd f84c 77be
00000170: 4f14 023d c475 003e ccc3 183e ffde 87bd
00000180: 3095 17be b2da 203c c1eb 6dbd e8fa 4f3e
00000190: 19a0 73bd 0af1 e7bd 7f2b 85bc a5e4 6dbd
000001a0: 6708 0d3e 926e 1c3e f7bd d73d 76cb 4d3b
000001b0: 3dcc cdbd 8346 df3d 7965 033d 0dba e03d
000001c0: 46b6 05be 00d6 6f3c 96f3 72bd fd50 c83b
000001d0: 921e 383e 0907 d2bd 7893 6ebd cc35 4a3c
000001e0: ac3d eabb 3a3e e63b 64b5 643e b616 94be
000001f0: 6137 413e 75ef 4abe 021d 9ebd ddfb 9abd
00000200: b9b0 86bd 526a 9fbc c061 233d 98dc 59be
00000210: 6839 8cbd 3711 2c3d c274 bebd 98e8 a43e
00000220: 7cfd f33d a2c9 c03d ddf4 9e3e 90ee ac3d
00000230: 510f 113d 006c e2bb 63ca 87be c7fd 893d
00000240: a4b1 b13c fa7a 4cbd 44ef 013d 8929 ad3d
00000250: 0a85 43be eb74 7abe be33 683d fe50 203e
00000260: bdf6 903d cc35 e6bd c608 6e3d 8e35 8c3d
00000270: a7a5 913d 0b8d 37be ca42 d7bd e658 29be
00000280: 2204 e63c bf4e 21bd 3b54 51bc 4710 febd
00000290: 6670 813e 1359 f6bc 686c 31bd d5f3 17bd
000002a0: 3cd6 67bd f6ee ebba 0359 0f3e 235c fbbd
000002b0: 2329 413d ffb1 83bd 2d5b a2bd e048 7bbd
000002c0: 7d40 30be 7b86 863d 0613 4f3d 77a6 f83c
000002d0: bf15 34bd ceff 1b3e b703 47bd fdbd 03be
000002e0: 7af0 7b3c 6968 053e 47c9 a2bd 0e6a 7abd
000002f0: 14f0 45be 2d52 49bd 0f40 543d 665f c8bd
00000300: 409c 6a3d cdfc ec3d ba0a c6bd 8509 533b
00000310: 760f 723c ad46 2e3e ce9a d3bd 5501 1d3e
0.23565486 0.16191941 -0.16523403 0.12344711 0.075501025 -0.092807434 -0.13549331 -0.21888968
-0.024847874 0.047362715 -0.10802381 -0.067533895 0.13515927 0.15401438 -0.18811207 0.17192808
-0.064276874 -0.051766656 0.042348105 0.07216889 0.31184697 0.067797795 0.028265001 -0.04834309
0.042964004 -0.07250126 -0.12415589 0.036036327 -0.038110465 0.028619118 0.02995732 -0.055649932
0.058946643 0.052248973 0.15983617 0.022225704 -0.31872785 -0.057208076 -0.101528235 -0.050131742
0.17437944 -0.08630345 -0.027440863 -0.036930155 -0.021840442 0.14576887 0.042070072 -0.27231055
0.28790262 0.041315954 -0.028239762 -0.2731573 0.049895875 0.027234277 -0.24424858 -0.059678793
0.0008534654 -0.12359869 0.075233206 0.069467865 0.012122139 0.13123314 0.3279215 -0.08224451
0.020687189 0.06895822 -0.049102698 0.034673937 0.05066049 -0.13708341 0.26737958 0.101244554
0.034147207 -0.15110235 0.11229324 0.029260125 -0.05323205 -0.026640624 0.005187136 -0.010901328
-0.033974163 -0.10073253 0.10384216 -0.042585015 0.0918795 0.22743653 -0.0012617728 0.13363653
0.06817428 0.29238662 -0.057989266 -0.24150455 0.03175765 0.12544924 0.1491844 -0.0663433
-0.14803004 0.009817766 -0.05808616 0.20310557 -0.059478853 -0.113252714 -0.016256092 -0.05807938
0.13772736 0.15276554 0.1053428 0.003140179 -0.10048721 0.10902121 0.032079194 0.10972986
-0.13057813 0.014638424 -0.059314333 0.00611317 0.17980412 -0.10255248 -0.058246106 0.012341928
-0.007148465 0.007026461 0.2233482 -0.28923577 0.18868782 -0.19817908 -0.077203766 -0.0756757
-0.06576676 -0.019459877 0.039888144 -0.21275556 -0.06846887 0.042008605 -0.092996135 0.32208705
0.11913583 0.094134584 0.3104619 0.0844394 0.035414997 -0.0069098473 -0.26521596 0.06737857
0.021691151 -0.049921967 0.031722322 0.08455188 -0.19093719 -0.24458663 0.05668997 0.15655896
0.070783116 -0.1124073 0.058113836 0.06846152 0.07111674 -0.17924897 -0.10510786 -0.16537818
0.028078143 -0.03938174 -0.01277643 -0.124054484 0.25281066 -0.03007177 -0.043316275 -0.03709777
-0.056600794 -0.0018000293 0.13998799 -0.12273433 0.04715837 -0.064304344 -0.07927547 -0.061348796
-0.172121 0.06568619 0.05055525 0.030352814 -0.04396605 0.152343 -0.048587527 -0.12865444
0.015377158 0.1302811 -0.07948547 -0.061136298 -0.19329864 -0.049150635 0.051818904 -0.09783821
0.057277918 0.115716554 -0.09670015 0.003220172 0.014774194 0.17019148 -0.10332261 0.1533254

actor_fc2.bias f4 [2]
00000000: 0c23 a23d ce56 673d
0.07916841 0.056479268

actor_fc2.weight f4 [2, 10]
00000000: c5ba 8abd bd17 2d3d b40f 83bd 7568 87be
00000010: 391b 833e a6b7 49be d4f4 51be 271a d03e
00000020: 0085 183d 1a2e 0dbe 0ee4 4f3e 94a5 32be
00000030: dc0c e13d bc98 b93c d8f3 c03c ead6 d0bd
00000040: 92dd 3abe e59f c1bc e0f9 20be ac69 1a3e
-0.06773905 0.042258967 -0.063994795 -0.26446882 0.25606707 -0.19698963 -0.20503551 0.40644953
0.037236214 -0.13787118 0.2030184 -0.17445976 0.10988781 0.022655837 0.023553774 -0.101972416
-0.18248585 -0.023635814 -0.1572032 0.15079373
